app/src/main/assets/final_mod_opt.tflite (tflite, 566000 bytes, 11 tensors)

functional_11/batch_normalization_10/batchnorm/mul_1;functional_11/conv1d_5/conv1d/Squeeze;functional_11/conv1d_5/BiasAdd;conv1d_5/bias;functional_11/batch_normalization_10/batchnorm/mul;functional_11/conv1d_5/conv1d f2 [32, 1, 15, 101]
00000000: 0400 0380 0600 0600 0680 0400 0680 0800
00000010: 0200 0600 0480 0480 0480 0480 0200 0680
00000020: 0600 0380 0380 0700 0980 0100 0300 0000
00000030: 0480 0680 0400 0800 0400 0880 0780 0100
00000040: 0100 0880 0700 0400 0780 0480 0300 0880
00000050: 0900 0580 0680 0680 0880 0700 0300 0680
00000060: 0100 0500 0380 0100 0480 0400 0680 0180
00000070: 0180 0580 0580 0400 0700 0480 0800 0300
00000080: 0800 0000 0780 0580 0280 0680 0980 0800
00000090: 0180 0580 0480 0880 0000 0700 0780 0480
000000a0: 0100 0880 0200 0200 0500 0100 0700 0280
000000b0: 0900 0200 0400 0600 0400 0380 0280 0300
000000c0: 0480 0600 0000 0700 0580 0400 0180 0380
000000d0: 0300 0880 0500 0880 0580 0400 0800 0580
000000e0: 0400 0680 0680 0880 0180 0280 0500 0780
000000f0: 0980 0500 0100 0200 0300 0300 0500 0000
00000100: 0080 0200 0200 0680 0300 0180 0400 0580
00000110: 0780 0880 0280 0100 0480 0300 0600 0800
00000120: 0800 0880 0600 0580 0400 0500 0200 0180
00000130: 0500 0880 0280 0800 0500 0400 0300 0600
00000140: 0280 0380 0100 0380 0600 0480 0280 0280
00000150: 0080 0600 0600 0100 0100 0400 0880 0200
00000160: 0400 0380 0780 0800 0700 0200 0680 0680
00000170: 0000 0480 0800 0580 0400 0080 0380 0980
00000180: 0080 0200 0300 0300 0000 0100 0180 0700
00000190: 0800 0880 0700 0380 0580 0480 0380 0680
000001a0: 0380 0780 0380 0400 0000 0700 0580 0880
000001b0: 0300 0700 0800 0780 0000 0600 0600 0400
000001c0: 0200 0880 0180 0180 0700 0100 0700 0280
000001d0: 0780 0300 0000 0400 0800 0500 0800 0580
000001e0: 0480 0300 0380 0000 0780 0380 0180 0480
000001f0: 0600 0000 0800 0000 0780 0100 0780 0980
2.4e-07 -2e-07 3.6e-07 3.6e-07 -3.6e-07 2.4e-07 -3.6e-07 5e-07
1e-07 3.6e-07 -2.4e-07 -2.4e-07 -2.4e-07 -2.4e-07 1e-07 -3.6e-07
3.6e-07 -2e-07 -2e-07 4e-07 -5.4e-07 6e-08 2e-07 0.0
-2.4e-07 -3.6e-07 2.4e-07 5e-07 2.4e-07 -5e-07 -4e-07 6e-08
6e-08 -5e-07 4e-07 2.4e-07 -4e-07 -2.4e-07 2e-07 -5e-07
5.4e-07 -3e-07 -3.6e-07 -3.6e-07 -5e-07 4e-07 2e-07 -3.6e-07
6e-08 3e-07 -2e-07 6e-08 -2.4e-07 2.4e-07 -3.6e-07 -6e-08
-6e-08 -3e-07 -3e-07 2.4e-07 4e-07 -2.4e-07 5e-07 2e-07
5e-07 0.0 -4e-07 -3e-07 -1e-07 -3.6e-07 -5.4e-07 5e-07
-6e-08 -3e-07 -2.4e-07 -5e-07 0.0 4e-07 -4e-07 -2.4e-07
6e-08 -5e-07 1e-07 1e-07 3e-07 6e-08 4e-07 -1e-07
5.4e-07 1e-07 2.4e-07 3.6e-07 2.4e-07 -2e-07 -1e-07 2e-07
-2.4e-07 3.6e-07 0.0 4e-07 -3e-07 2.4e-07 -6e-08 -2e-07
2e-07 -5e-07 3e-07 -5e-07 -3e-07 2.4e-07 5e-07 -3e-07
2.4e-07 -3.6e-07 -3.6e-07 -5e-07 -6e-08 -1e-07 3e-07 -4e-07
-5.4e-07 3e-07 6e-08 1e-07 2e-07 2e-07 3e-07 0.0
-0.0 1e-07 1e-07 -3.6e-07 2e-07 -6e-08 2.4e-07 -3e-07
-4e-07 -5e-07 -1e-07 6e-08 -2.4e-07 2e-07 3.6e-07 5e-07
5e-07 -5e-07 3.6e-07 -3e-07 2.4e-07 3e-07 1e-07 -6e-08
3e-07 -5e-07 -1e-07 5e-07 3e-07 2.4e-07 2e-07 3.6e-07
-1e-07 -2e-07 6e-08 -2e-07 3.6e-07 -2.4e-07 -1e-07 -1e-07
-0.0 3.6e-07 3.6e-07 6e-08 6e-08 2.4e-07 -5e-07 1e-07
2.4e-07 -2e-07 -4e-07 5e-07 4e-07 1e-07 -3.6e-07 -3.6e-07
0.0 -2.4e-07 5e-07 -3e-07 2.4e-07 -0.0 -2e-07 -5.4e-07
-0.0 1e-07 2e-07 2e-07 0.0 6e-08 -6e-08 4e-07
5e-07 -5e-07 4e-07 -2e-07 -3e-07 -2.4e-07 -2e-07 -3.6e-07
-2e-07 -4e-07 -2e-07 2.4e-07 0.0 4e-07 -3e-07 -5e-07
2e-07 4e-07 5e-07 -4e-07 0.0 3.6e-07 3.6e-07 2.4e-07
1e-07 -5e-07 -6e-08 -6e-08 4e-07 6e-08 4e-07 -1e-07
-4e-07 2e-07 0.0 2.4e-07 5e-07 3e-07 5e-07 -3e-07
-2.4e-07 2e-07 -2e-07 0.0 -4e-07 -2e-07 -6e-08 -2.4e-07
3.6e-07 0.0 5e-07 0.0 -4e-07 6e-08 -4e-07 -5.4e-07

functional_11/batch_normalization_10/batchnorm/sub f2 [32]
00000000: 4d26 9c29 1ea2 ca28 532a 01aa 84ac 58a3
00000010: f529 922b 0527 9227 2d2b caa4 052c a529
00000020: 8b2a c82b ad28 312c f32a 6c27 2426 c32a
00000030: b324 21a4 d628 ea22 aa2a 5928 f626 ab22
0.02461 0.04382 -0.01195 0.0374 0.0494 -0.0469 -0.07056 -0.01434
0.04654 0.05914 0.02742 0.02957 0.05606 -0.0187 0.0628 0.0441
0.05112 0.0608 0.03653 0.0655 0.0543 0.02899 0.02399 0.05283
0.01836 -0.01613 0.03778 0.013504 0.05206 0.03397 0.02719 0.01302

functional_11/batch_normalization_11/batchnorm/mul f2 [256]
00000000: 2e4b 2c49 d249 464b bb49 764a b149 da4a
00000010: 414b 564a ea49 e14b 3b4b 584b cc49 a04a
00000020: 1c4b ea4a 594c 6c4a f94a dc49 0e4b ec49
00000030: a34b 294b f14b e34a 434a 2b4b 0c4b f348
00000040: fc48 3a4c 274a 224a bf49 b24a 7a4a b54a
00000050: 444b f14a e948 d14a 1d4a 744a 1a4b 334c
00000060: 2f4c 454a 1a4a 4a4a 5d49 ac4b b54a 084c
00000070: 994b ba4a 834c de49 e74a 964a 224a 664b
00000080: 904a 514b a84a 904a 134b 0f4c 454a 7e4a
00000090: ca4b 8d49 5a4b 124a db4a 514a 3d4a 484b
000000a0: 8249 fd4a 604b 164b 0b4c c54a 8949 bc4b
000000b0: e14a 1b4a 7d4a de4b 124b e749 3d4a 0d4a
000000c0: d04a 3d4a f449 9c4b 174c bd4b d94a b549
000000d0: 634a 0f4a c549 ad4a ca49 b84b 794a d34b
000000e0: 8b49 dd49 fd4b bd4b 2b4b 714b 634a af48
000000f0: 4f4a 7e4b 944b 394c 834b c249 994a f449
00000100: d348 6d49 484a 0d4a 4e4b 404a 3a4a 8a4b
00000110: 214d a24a 4c4a 694a 154b 3e4a 134a a34a
00000120: a94a 894b 1f4b 3c4c 274a dc4a 474b cb4b
00000130: 1a4a 364a 6c4b e74a 7f4a 9f4c 534b ef48
00000140: ad4b ea49 784a 124b 324a 784b de4b 794b
00000150: 2e4b b94a af4b 7a49 bc4a 0d4a 9749 224b
00000160: a64b 894b 3e4a ec4a ab4b ff4c 9c49 dc4b
00000170: d84a 8e49 5e4b 584b 284c d54a 004b 214b
00000180: d54a 254a 6049 644b 5d49 1f4b 884b 164b
00000190: 5e4a d749 e64a ad4a 7049 384b 644a ef4b
000001a0: 994b a54b ca49 854b 0249 034a 6a4a 424c
000001b0: ad49 784a 634a 5d4b 194c 294b f349 034c
000001c0: 1249 ff4a b94a 3a4c 074c 8c49 524b 9e4b
000001d0: ac49 094b a54b 864a 4e4c 304a 544c a64a
000001e0: e749 cb49 894c cc4a 3e4a 524b 5f4b dd49
000001f0: 3e4c 2a4a 894d 9b4c c94b 224b b54b fa4b
14.36 10.34 11.64 14.55 11.46 12.92 11.38 13.7
14.51 12.67 11.83 15.76 14.46 14.69 11.59 13.25
14.22 13.83 17.39 12.84 13.945 11.72 14.11 11.84
15.27 14.32 15.88 13.77 12.52 14.336 14.09 9.9
9.97 16.9 12.305 12.266 11.49 13.39 12.95 13.414
14.53 13.88 9.82 13.63 12.23 12.91 14.2 16.8
16.73 12.54 12.2 12.58 10.73 15.34 13.414 16.12
15.195 13.45 18.05 11.734 13.805 13.17 12.266 14.8
13.125 14.63 13.31 13.125 14.15 16.23 12.54 12.984
15.58 11.1 14.7 12.14 13.71 12.63 12.48 14.56
11.016 13.98 14.75 14.17 16.17 13.54 11.07 15.47
13.76 12.21 12.98 15.734 14.14 11.805 12.48 12.1
13.625 12.48 11.91 15.22 16.36 15.48 13.695 11.414
12.77 12.12 11.54 13.35 11.58 15.44 12.945 15.65
11.086 11.73 15.98 15.48 14.336 14.88 12.77 9.37
12.62 14.984 15.16 16.89 15.02 11.516 13.195 11.91
9.65 10.85 12.56 12.1 14.61 12.5 12.45 15.08
20.52 13.266 12.59 12.82 14.164 12.484 12.15 13.27
13.32 15.07 14.24 16.94 12.305 13.72 14.555 15.586
12.2 12.42 14.84 13.805 12.99 18.48 14.65 9.87
15.35 11.83 12.94 14.14 12.39 14.94 15.734 14.945
14.36 13.445 15.37 10.95 13.47 12.1 11.18 14.266
15.3 15.07 12.484 13.84 15.336 19.98 11.22 15.72
13.69 11.11 14.734 14.69 16.62 13.664 14.0 14.26
13.664 12.29 10.75 14.78 10.73 14.24 15.06 14.17
12.734 11.68 13.8 13.35 10.875 14.44 12.78 15.87
15.195 15.29 11.58 15.04 10.016 12.02 12.83 17.03
11.35 12.94 12.77 14.73 16.39 14.32 11.9 16.05
10.14 13.99 13.445 16.9 16.11 11.09 14.64 15.234
11.34 14.07 15.29 13.05 17.22 12.375 17.31 13.3
11.805 11.586 18.14 13.59 12.484 14.64 14.74 11.73
16.97 12.33 22.14 18.42 15.57 14.266 15.414 15.95

functional_11/batch_normalization_11/batchnorm/sub f2 [256]
00000000: 3a28 4e2e dd29 da98 2032 2129 6aae 4aa5
00000010: 43ac 132f 70a8 551d d696 7c2c 4dac ef2c
00000020: 18a4 55ad 39a6 3d30 cd24 ffb1 2824 da31
00000030: e7ac 53ac b32a 322c 50a7 71a5 b52c e733
00000040: 8131 53af a82c b420 292c de2d f532 87a4
00000050: 9229 df2c 86ad 8023 401f bc2a b0a7 14a9
00000060: 3eab e9a9 e02a f32e f233 92a9 382c c62c
00000070: 4832 4faa 05a3 f92d 4aa5 b2b0 792a f5b2
00000080: 3328 7630 2231 e7ac d1af 0f1d 30ae 95b1
00000090: 7328 99ad 99ac 5f2c 4c20 cda4 9132 6f1b
000000a0: 142c 292d b7af 27a8 3eac 2522 b9ab 98ac
000000b0: d925 4a24 8faf c426 1aac fe29 f4a9 7f23
000000c0: f6ac e0ae e9a7 74a1 8ea9 7ba0 7821 c7a9
000000d0: 5faa aa2e b425 f7ac f9af 35aa db18 8694
000000e0: b3a9 2734 1e98 7e28 5aab e126 4bb0 8eb1
000000f0: 2aac 90ad a029 ffa7 0f1e 2021 6da8 392a
00000100: d330 912c 772d 3520 2911 2aa5 1ba7 fbab
00000110: 1e24 df2e 16ad 4ead 132e d3aa a4ae 7ea6
00000120: 99a7 ad1a 1329 dea7 4fac c2ac 75a9 322e
00000130: 5b2e 37a9 c1ab 262a 30af c3ae 20ad 3633
00000140: 67ac 86ae b19a 0620 e9ad 21ae f125 678a
00000150: 08ab 78ad a496 7cb2 cd29 cdb0 812d d420
00000160: 762a 3393 2e28 9aae 4927 a9a8 38a6 a49f
00000170: 3f9a b9b2 a825 ea2d ee21 6eaa 9bad 559c
00000180: a0b0 ceae 9fa4 3034 42b1 92aa ec98 3da8
00000190: 982e 02a7 3a2c d031 bd28 acac 9898 00a5
000001a0: 9c2f e51d bcb1 25b2 e524 68b0 dc1e a730
000001b0: eda4 2bae 4c2b cf27 e0ac 54a8 acac 4aac
000001c0: 1db1 4334 ecb0 8930 13ab b334 542e 53a6
000001d0: c9ad 841f eba1 6329 1129 1d18 a1ac 3daf
000001e0: 6ba9 b628 5529 34ab 682c f031 2f1c 432c
000001f0: 7e2c 732a c62a 1f2d 2928 2ea0 ceac 792c
0.03302 0.0985 0.0458 -0.002369 0.1914 0.04007 -0.1002 -0.02066
-0.0666 0.11053 -0.03467 0.005207 -0.001669 0.07007 -0.0672 0.0771
-0.01599 -0.0833 -0.0243 0.1324 0.01875 -0.1874 0.01624 0.1829
-0.0766 -0.06757 0.05234 0.06555 -0.02856 -0.02126 0.07355 0.247
0.172 -0.11444 0.07275 0.009186 0.065 0.0917 0.2174 -0.01768
0.04352 0.0761 -0.0863 0.01465 0.00708 0.0526 -0.03003 -0.03967
-0.05658 -0.04617 0.0537 0.1086 0.2483 -0.04352 0.0659 0.0746
0.1963 -0.0493 -0.01371 0.0933 -0.02066 -0.1467 0.05057 -0.2174
0.0328 0.1394 0.1604 -0.0766 -0.12213 0.00494 -0.0967 -0.1744
0.03476 -0.08746 -0.07184 0.0683 0.00839 -0.01875 0.2052 0.00363
0.0637 0.0806 -0.12054 -0.03244 -0.0663 0.012 -0.06033 -0.0718
0.02284 0.01675 -0.1181 0.02643 -0.0641 0.0468 -0.0465 0.01464
-0.0775 -0.1074 -0.0309 -0.01065 -0.0434 -0.00875 0.01068 -0.04514
-0.04977 0.1041 0.02228 -0.0776 -0.1246 -0.0485 0.00237 -0.001104
-0.04453 0.2595 -0.00201 0.0351 -0.05743 0.02687 -0.1342 -0.1736
-0.06506 -0.0869 0.04395 -0.03123 0.005917 0.01001 -0.03458 0.0486
0.1508 0.07135 0.0854 0.00822 0.00063 -0.02017 -0.02776 -0.06235
0.01608 0.10736 -0.07947 -0.0829 0.0949 -0.0533 -0.10376 -0.02536
-0.02968 0.00326 0.03964 -0.03073 -0.0673 -0.07434 -0.04263 0.0968
0.0993 -0.04074 -0.06058 0.04803 -0.1123 -0.10565 -0.0801 0.2253
-0.0688 -0.1019 -0.003267 0.00786 -0.09235 -0.09576 0.02321 -0.0001954
-0.05493 -0.08545 -0.001621 -0.2026 0.04532 -0.15 0.086 0.00943
0.05048 -0.000879 0.03265 -0.10315 0.02846 -0.0364 -0.02429 -0.00746
-0.00305 -0.2101 0.0221 0.0924 0.01158 -0.05023 -0.0876 -0.00423
-0.1445 -0.1063 -0.01805 0.2617 -0.1643 -0.05133 -0.002403 -0.0331
0.103 -0.02737 0.06604 0.1816 0.03702 -0.073 -0.002243 -0.01953
0.1189 0.005756 -0.1792 -0.192 0.01912 -0.1377 0.0067 0.1454
-0.01924 -0.0964 0.057 0.0305 -0.0762 -0.0338 -0.073 -0.067
-0.1598 0.2664 -0.1538 0.1417 -0.05527 0.2937 0.0989 -0.0247
-0.0904 0.00734 -0.01156 0.04208 0.03958 0.002008 -0.0723 -0.1131
-0.04233 0.0368 0.04166 -0.05627 0.06885 0.1855 0.004086 0.0666
0.0702 0.05038 0.05292 0.08 0.0325 -0.00816 -0.0751 0.0699

unstack f4 [768]
00000000: d0ac 9abb 4f32 323b 1fa2 24bc b76c 093b
00000010: 0f52 33bb ed7c 003c 86c5 f23b ac74 27ba
00000020: fa66 8f3b 6db7 553b faec 973a 6d04 7938
00000030: 4b3c e3b9 2c59 02bc 0c37 53bb 299a ec3b
00000040: 8361 103b f7ee 8d3a 3ffc 8dbb f08c 71bb
00000050: 33e3 bb3a e37e b6ba 982e 023c 6415 18bb
00000060: 3556 723a 3c2b b7ba f74e 1cbb 443c 98ba
00000070: 9e35 183b f990 dcbb a4b3 26bb 75b9 893b
00000080: dcfa 9cbb d6ef febb dd74 923b 785a 8437
00000090: e80f a13a 4c35 ba3b 340f 2038 b540 3bbb
000000a0: b406 12ba 581a 793b 2576 8a3b 8aa4 1bbb
000000b0: 44b7 fbba cff0 0a3c 2cd0 33bb d56a 8dbb
000000c0: 6b78 3a3b 6a1c 0e3b 6686 a8bb be12 1f3b
000000d0: ae55 97ba a393 a53b 319c c5bb a64b 3a3a
000000e0: 356b b03a 2036 da3b f9b9 28ba e979 50ba
000000f0: d218 e6b9 89f2 76bb 72bf 23bb 24f4 abb9
00000100: 47c9 4ebb f225 8bb8 0d07 3bbb 306a 04bc
00000110: 2cb0 bfba f825 113b 07e1 f8bb f077 26bb
00000120: 2316 1d3b ad33 ccb9 9442 85bb ae89 823b
00000130: 5cb5 343b 3bd3 33bb c09f a3bb 27ed 953b
00000140: 7c58 07ba 49e7 033b fbf9 ebba 72e4 eb3b
00000150: 77d9 aabb 96c3 12b9 a9ef d5ba 6113 8bba
00000160: 7b65 9ebb 3988 37bb 31f5 20bb 3aef aebb
00000170: 2220 fa38 837e 3c3b 7eac ecba 14f1 a43b
00000180: fc08 84bb 0d5b f53a 3675 2d3b 2c11 b6bb
00000190: 6ee2 f53b d4d3 46bb 0814 9d3b b947 9d3b
000001a0: d5af 263a 20a6 85bb ff3d 9dbb d2cc ba3a
000001b0: b47a ae3b ed85 123b 471d 9bbb 67eb 93bb
000001c0: ddd7 c1bb aeab 04bb e1db 1e3b 4595 06bc
000001d0: 8914 3b39 65c6 903b 8609 87bb 0e5e 8f39
000001e0: 61c1 8039 2d83 533b b019 0cbb 5048 e4bb
000001f0: ea53 b43b 3d36 37b8 7576 14bb 602a d8ba
00000200: da02 9eb9 f6b1 343a 0c54 983a 56a8 bdbb
00000210: 9d6c 823b 5359 47bb afcc 3139 8e3a b9b6
00000220: b7a2 cb3b 465b 02bb 4212 163b 950f 6ebb
00000230: 6ec1 2c3b 2bae 08bc 60e9 ef3a 3e8c e838
00000240: de09 433b e868 a3bb 3035 ecbb 498e afbb
00000250: 1915 393a aeee aabb 87b7 a33b 5268 163b
00000260: 4b7f 803b 6bc4 3fbb 746c 9839 3252 e6bb
00000270: 0a10 8d3a d376 5c3b 0010 7f3b 0514 6cbb
00000280: 1ba6 d93a 3b02 b0bb 9390 203b 7e1e 90bb
00000290: cffc cfbb 4c22 74bb 7e94 483a 2bdb 6f3b
000002a0: be81 003a f9f4 c63a a1c9 07bc 68a6 e63a
000002b0: 15ca 3c3b 3003 523b c31d d23b 770b e6b9
000002c0: 16cd aebb 5bcc 9dbb f1b6 763a 7d10 7d3b
000002d0: af29 753b a037 8eb9 c83e 81bb 4129 b0bb
000002e0: 4ad2 2bbb 92a7 ffba f00f 883b 381e 833b
000002f0: 4892 63bb af0b 4e3b b264 5b3b 17b5 03ba
00000300: 0d21 9f37 7730 813b c10a d7ba d139 ee38
00000310: 3a62 93bb 3ab9 24bc 83b7 87b9 230a a3bb
00000320: 657b 5ebb 4e24 afbb 1db7 b6ba 052c 47bb
00000330: c924 4c3b 1a26 273b 1183 80bb 6a61 373b
00000340: c714 5738 c99e a83b f663 37ba a9b8 aabb
00000350: 3ffb 883b 16b3 a939 377a 503b 94a8 013a
00000360: 8896 713a ba08 583b f680 a73b 09d2 0c3a
00000370: 340e 36bb f3b8 afbb e0a1 b43b cc20 87bb
00000380: 339f b23b 12e1 b83b 5d12 3e3a e622 9f3a
00000390: bf79 57ba fe2e 553a 8c9d d73b a09f 933b
000003a0: b9a4 233b c575 2f3b 5fd8 d4b9 cc89 68bb
000003b0: 1c4c 3f3b 2da0 a7bb 705b e8bb 8a21 c6bb
000003c0: acbd bfbb dd47 c83a 2374 6b3b f909 033b
000003d0: 4326 1cbb ac79 e3bb 77b8 4a3b e2e0 8fbb
000003e0: 7b27 873b a7e3 b23b bdc2 da3b c4d7 1539
000003f0: 89f6 8ebb af17 fc3b c7e0 853b a6ae fdbb
-0.004720308 0.002719063 -0.010048418 0.002096934 -0.0027362143 0.007842285 0.0074088005 -0.000638793
0.0043762894 0.003261055 0.001159101 5.9370348e-05 -0.00043341736 -0.007955831 -0.0032228855 0.0072205258
0.0022030778 0.0010828663 -0.0043330486 -0.0036857687 0.0014334678 -0.0013923313 0.007945679 -0.002320611
0.0009244413 -0.0013974677 -0.0023850778 -0.001161464 0.0023225318 -0.0067311493 -0.0025436664 0.0042030164
-0.004790647 -0.0077800555 0.0044694976 1.5777754e-05 0.0012288066 0.005682623 3.816113e-05 -0.0028572504
-0.0005570457 0.0038010087 0.0042255097 -0.0023749196 -0.0019204398 0.008480265 -0.0027437313 -0.004315714
0.0028453122 0.0021684417 -0.0051429747 0.0024272646 -0.001154592 0.005053 -0.0060305824 0.00071066094
0.0013459685 0.0066592842 -0.00064364035 -0.00079527363 -0.0004388751 -0.0037681183 -0.0024985936 -0.0003279756
-0.0031553076 -6.6351044e-05 -0.0028538138 -0.008081958 -0.0014624647 0.0022147875 -0.0075951847 -0.0025401078
0.0023969493 -0.00038948414 -0.0040667746 0.003983698 0.002757392 -0.0027439136 -0.004993409 0.00457539
-0.00051630265 0.002012687 -0.0018003577 0.0071988637 -0.005213912 -0.00013996506 -0.0016322035 -0.0010610634
-0.0048338748 -0.002800478 -0.0024560208 -0.0053385766 0.00011926914 0.002876193 -0.0018056778 0.0050336216
-0.0040293913 0.0018719152 0.0026467568 -0.0055562463 0.007503799 -0.0030338662 0.0047936477 0.00479981
0.00063585985 -0.0040786415 -0.0047986503 0.0014251715 0.005324686 0.0022357658 -0.0047337147 -0.004514146
-0.0059156255 -0.002024393 0.0024239945 -0.0082143 0.0001784136 0.0044181817 -0.0041210083 0.00027345162
0.0002455814 0.0032274232 -0.0021377616 -0.006966628 0.0055031674 -4.3681113e-05 -0.0022653614 -0.0016492121
-0.00030138233 0.00068929733 0.0011621728 -0.0057878895 0.003980233 -0.0030418232 0.00016956286 -5.5202463e-06
0.0062144655 -0.001989083 0.0022899066 -0.0036325206 0.002636041 -0.008342306 0.0018303804 0.00011088744
0.002976052 -0.004986871 -0.007208489 -0.005357538 0.0007060334 -0.005216441 0.0049962434 0.0022950363
0.0039214245 -0.0029261361 0.00029072503 -0.0070288414 0.0010762226 0.003364016 0.003891945 -0.0036022675
0.001660529 -0.0053713596 0.0024500235 -0.004398166 -0.006347276 -0.0037251888 0.00076515216 0.003659914
0.00049021456 0.0015179209 -0.008287818 0.00175972 0.0028806974 0.0032045357 0.0064122393 -0.0004387756
-0.0053345067 -0.004815621 0.00094114157 0.0038614564 0.0037408879 -0.00027125794 -0.0039442517 -0.0053760116
-0.0026217871 -0.0019504896 0.0041522905 0.004001405 -0.0034724642 0.003144007 0.0033476767 -0.0005024238
1.8969668e-05 0.003942545 -0.0016406403 0.000113594935 -0.0044977935 -0.010053927 -0.00025885933 -0.0049755736
-0.003394806 -0.005344904 -0.001394007 -0.0030391228 0.0031149855 0.0025504888 -0.0039218743 0.0027981647
5.1279345e-05 0.005145882 -0.00069957913 -0.0052100015 0.0041803415 0.0003236762 0.0031811127 0.00049460796
0.00092158513 0.0032964186 0.005111809 0.0005371874 -0.0027779462 -0.005362624 0.005512461 -0.0041237827
0.005451107 0.005642065 0.0007250661 0.0012141138 -0.00082197407 0.00081323076 0.0065800603 0.004505113
0.0024970009 0.0026773077 -0.00040597 -0.0035482524 0.0029189652 -0.00511553 -0.0070909783 -0.0060464786
-0.005851468 0.0015280206 0.0035927377 0.0019994958 -0.0023826517 -0.0069419947 0.0030932704 -0.004390822
0.0041245795 0.005459267 0.0066760466 0.00014290126 -0.0043628854 0.007693253 0.0040856334 -0.007741767

unstack1 f4 [768]
00000000: d0ac 9abb 4f32 323b 1fa2 24bc b76c 093b
00000010: 0f52 33bb ed7c 003c 86c5 f23b ac74 27ba
00000020: fa66 8f3b 6db7 553b faec 973a 6d04 7938
00000030: 4b3c e3b9 2c59 02bc 0c37 53bb 299a ec3b
00000040: 8361 103b f7ee 8d3a 3ffc 8dbb f08c 71bb
00000050: 33e3 bb3a e37e b6ba 982e 023c 6415 18bb
00000060: 3556 723a 3c2b b7ba f74e 1cbb 443c 98ba
00000070: 9e35 183b f990 dcbb a4b3 26bb 75b9 893b
00000080: dcfa 9cbb d6ef febb dd74 923b 785a 8437
00000090: e80f a13a 4c35 ba3b 340f 2038 b540 3bbb
000000a0: b406 12ba 581a 793b 2576 8a3b 8aa4 1bbb
000000b0: 44b7 fbba cff0 0a3c 2cd0 33bb d56a 8dbb
000000c0: 6b78 3a3b 6a1c 0e3b 6686 a8bb be12 1f3b
000000d0: ae55 97ba a393 a53b 319c c5bb a64b 3a3a
000000e0: 356b b03a 2036 da3b f9b9 28ba e979 50ba
000000f0: d218 e6b9 89f2 76bb 72bf 23bb 24f4 abb9
00000100: 47c9 4ebb f225 8bb8 0d07 3bbb 306a 04bc
00000110: 2cb0 bfba f825 113b 07e1 f8bb f077 26bb
00000120: 2316 1d3b ad33 ccb9 9442 85bb ae89 823b
00000130: 5cb5 343b 3bd3 33bb c09f a3bb 27ed 953b
00000140: 7c58 07ba 49e7 033b fbf9 ebba 72e4 eb3b
00000150: 77d9 aabb 96c3 12b9 a9ef d5ba 6113 8bba
00000160: 7b65 9ebb 3988 37bb 31f5 20bb 3aef aebb
00000170: 2220 fa38 837e 3c3b 7eac ecba 14f1 a43b
00000180: fc08 84bb 0d5b f53a 3675 2d3b 2c11 b6bb
00000190: 6ee2 f53b d4d3 46bb 0814 9d3b b947 9d3b
000001a0: d5af 263a 20a6 85bb ff3d 9dbb d2cc ba3a
000001b0: b47a ae3b ed85 123b 471d 9bbb 67eb 93bb
000001c0: ddd7 c1bb aeab 04bb e1db 1e3b 4595 06bc
000001d0: 8914 3b39 65c6 903b 8609 87bb 0e5e 8f39
000001e0: 61c1 8039 2d83 533b b019 0cbb 5048 e4bb
000001f0: ea53 b43b 3d36 37b8 7576 14bb 602a d8ba
00000200: da02 9eb9 f6b1 343a 0c54 983a 56a8 bdbb
00000210: 9d6c 823b 5359 47bb afcc 3139 8e3a b9b6
00000220: b7a2 cb3b 465b 02bb 4212 163b 950f 6ebb
00000230: 6ec1 2c3b 2bae 08bc 60e9 ef3a 3e8c e838
00000240: de09 433b e868 a3bb 3035 ecbb 498e afbb
00000250: 1915 393a aeee aabb 87b7 a33b 5268 163b
00000260: 4b7f 803b 6bc4 3fbb 746c 9839 3252 e6bb
00000270: 0a10 8d3a d376 5c3b 0010 7f3b 0514 6cbb
00000280: 1ba6 d93a 3b02 b0bb 9390 203b 7e1e 90bb
00000290: cffc cfbb 4c22 74bb 7e94 483a 2bdb 6f3b
000002a0: be81 003a f9f4 c63a a1c9 07bc 68a6 e63a
000002b0: 15ca 3c3b 3003 523b c31d d23b 770b e6b9
000002c0: 16cd aebb 5bcc 9dbb f1b6 763a 7d10 7d3b
000002d0: af29 753b a037 8eb9 c83e 81bb 4129 b0bb
000002e0: 4ad2 2bbb 92a7 ffba f00f 883b 381e 833b
000002f0: 4892 63bb af0b 4e3b b264 5b3b 17b5 03ba
00000300: 0d21 9f37 7730 813b c10a d7ba d139 ee38
00000310: 3a62 93bb 3ab9 24bc 83b7 87b9 230a a3bb
00000320: 657b 5ebb 4e24 afbb 1db7 b6ba 052c 47bb
00000330: c924 4c3b 1a26 273b 1183 80bb 6a61 373b
00000340: c714 5738 c99e a83b f663 37ba a9b8 aabb
00000350: 3ffb 883b 16b3 a939 377a 503b 94a8 013a
00000360: 8896 713a ba08 583b f680 a73b 09d2 0c3a
00000370: 340e 36bb f3b8 afbb e0a1 b43b cc20 87bb
00000380: 339f b23b 12e1 b83b 5d12 3e3a e622 9f3a
00000390: bf79 57ba fe2e 553a 8c9d d73b a09f 933b
000003a0: b9a4 233b c575 2f3b 5fd8 d4b9 cc89 68bb
000003b0: 1c4c 3f3b 2da0 a7bb 705b e8bb 8a21 c6bb
000003c0: acbd bfbb dd47 c83a 2374 6b3b f909 033b
000003d0: 4326 1cbb ac79 e3bb 77b8 4a3b e2e0 8fbb
000003e0: 7b27 873b a7e3 b23b bdc2 da3b c4d7 1539
000003f0: 89f6 8ebb af17 fc3b c7e0 853b a6ae fdbb
-0.004720308 0.002719063 -0.010048418 0.002096934 -0.0027362143 0.007842285 0.0074088005 -0.000638793
0.0043762894 0.003261055 0.001159101 5.9370348e-05 -0.00043341736 -0.007955831 -0.0032228855 0.0072205258
0.0022030778 0.0010828663 -0.0043330486 -0.0036857687 0.0014334678 -0.0013923313 0.007945679 -0.002320611
0.0009244413 -0.0013974677 -0.0023850778 -0.001161464 0.0023225318 -0.0067311493 -0.0025436664 0.0042030164
-0.004790647 -0.0077800555 0.0044694976 1.5777754e-05 0.0012288066 0.005682623 3.816113e-05 -0.0028572504
-0.0005570457 0.0038010087 0.0042255097 -0.0023749196 -0.0019204398 0.008480265 -0.0027437313 -0.004315714
0.0028453122 0.0021684417 -0.0051429747 0.0024272646 -0.001154592 0.005053 -0.0060305824 0.00071066094
0.0013459685 0.0066592842 -0.00064364035 -0.00079527363 -0.0004388751 -0.0037681183 -0.0024985936 -0.0003279756
-0.0031553076 -6.6351044e-05 -0.0028538138 -0.008081958 -0.0014624647 0.0022147875 -0.0075951847 -0.0025401078
0.0023969493 -0.00038948414 -0.0040667746 0.003983698 0.002757392 -0.0027439136 -0.004993409 0.00457539
-0.00051630265 0.002012687 -0.0018003577 0.0071988637 -0.005213912 -0.00013996506 -0.0016322035 -0.0010610634
-0.0048338748 -0.002800478 -0.0024560208 -0.0053385766 0.00011926914 0.002876193 -0.0018056778 0.0050336216
-0.0040293913 0.0018719152 0.0026467568 -0.0055562463 0.007503799 -0.0030338662 0.0047936477 0.00479981
0.00063585985 -0.0040786415 -0.0047986503 0.0014251715 0.005324686 0.0022357658 -0.0047337147 -0.004514146
-0.0059156255 -0.002024393 0.0024239945 -0.0082143 0.0001784136 0.0044181817 -0.0041210083 0.00027345162
0.0002455814 0.0032274232 -0.0021377616 -0.006966628 0.0055031674 -4.3681113e-05 -0.0022653614 -0.0016492121
-0.00030138233 0.00068929733 0.0011621728 -0.0057878895 0.003980233 -0.0030418232 0.00016956286 -5.5202463e-06
0.0062144655 -0.001989083 0.0022899066 -0.0036325206 0.002636041 -0.008342306 0.0018303804 0.00011088744
0.002976052 -0.004986871 -0.007208489 -0.005357538 0.0007060334 -0.005216441 0.0049962434 0.0022950363
0.0039214245 -0.0029261361 0.00029072503 -0.0070288414 0.0010762226 0.003364016 0.003891945 -0.0036022675
0.001660529 -0.0053713596 0.0024500235 -0.004398166 -0.006347276 -0.0037251888 0.00076515216 0.003659914
0.00049021456 0.0015179209 -0.008287818 0.00175972 0.0028806974 0.0032045357 0.0064122393 -0.0004387756
-0.0053345067 -0.004815621 0.00094114157 0.0038614564 0.0037408879 -0.00027125794 -0.0039442517 -0.0053760116
-0.0026217871 -0.0019504896 0.0041522905 0.004001405 -0.0034724642 0.003144007 0.0033476767 -0.0005024238
1.8969668e-05 0.003942545 -0.0016406403 0.000113594935 -0.0044977935 -0.010053927 -0.00025885933 -0.0049755736
-0.003394806 -0.005344904 -0.001394007 -0.0030391228 0.0031149855 0.0025504888 -0.0039218743 0.0027981647
5.1279345e-05 0.005145882 -0.00069957913 -0.0052100015 0.0041803415 0.0003236762 0.0031811127 0.00049460796
0.00092158513 0.0032964186 0.005111809 0.0005371874 -0.0027779462 -0.005362624 0.005512461 -0.0041237827
0.005451107 0.005642065 0.0007250661 0.0012141138 -0.00082197407 0.00081323076 0.0065800603 0.004505113
0.0024970009 0.0026773077 -0.00040597 -0.0035482524 0.0029189652 -0.00511553 -0.0070909783 -0.0060464786
-0.005851468 0.0015280206 0.0035927377 0.0019994958 -0.0023826517 -0.0069419947 0.0030932704 -0.004390822
0.0041245795 0.005459267 0.0066760466 0.00014290126 -0.0043628854 0.007693253 0.0040856334 -0.007741767

functional_11/time_distributed_5/dense_5/MatMul f2 [1, 256]
00000000: 3b2e 682c 9fb0 14ab 4ca6 49b0 262c ec2a
00000010: fa30 ba29 e4b0 24b0 fd29 9129 f5af 00b0
00000020: b1ae cc2e 852d 4bac 8530 71a8 f730 c4a8
00000030: 6bae cb2f c9a8 eaaf b9ae b02c 78ae 2e29
00000040: 68b0 fc25 e7aa aaac edb0 b8b0 2faa c1af
00000050: 482a 25ad 68b0 2fac 3eb0 8fb0 c230 cc2f
00000060: 9130 ed30 3ab0 94af 28ab 4530 49ac f2ad
00000070: 81a9 6f2b 7230 a4b0 892f e32c afae 0f24
00000080: d0af c2ac 5a28 832c 6e2b f4af 452f fa2c
00000090: 712e ff2f 83ab 482f 792c 06b0 fcaa 81ac
000000a0: c42f dbb0 7a29 39af 152c 62ad abb0 152c
000000b0: f928 342c 422b 872d 822b bc2d b0b0 b8b0
000000c0: 1431 1a2d 2bae 7c2d de2f 4eb0 802e b0ae
000000d0: ee30 8eae cdad b82c 93ab 36a9 bf2d d5a9
000000e0: 3aaf f727 eea6 38ae a82d a630 63ab 95ad
000000f0: b2a9 e72e 0ab1 b330 13b0 9525 2430 4030
00000100: 90b0 0a30 dab0 992f ccaa 642d a32f 3830
00000110: cf28 82ad 54aa 2a2b 17aa b930 e225 f1ab
00000120: fbac 142e 7d30 f7ab 18ae 252c 17b0 7829
00000130: fcad 032b b7ac 0eb1 c927 202b ed2f 44ac
00000140: 442f c530 e6b0 2425 c730 792c ea30 0baa
00000150: cf2a 05ad 7caa 62a9 24b0 a1ac 342b e1ad
00000160: bcae 7aa8 d2b0 71a7 292c 0e31 76b0 1829
00000170: 192e a72d b3ac 3fad ac2d 9630 7c30 f030
00000180: 2029 782c 72b0 97a7 d12d 302f 40af ba30
00000190: 7ca7 b7b0 c2ae 23ac 1730 8fac 4c2a 77b0
000001a0: ae26 cc2c 2b29 db28 642d 2d2d db2c cc28
000001b0: 72ad 2b2d 9db0 eaad c42d bf28 15af cf2f
000001c0: 5d2b e1a8 aa2b f2ad f528 b127 99aa b5b0
000001d0: 1428 5430 5d2d 612d 6030 88b0 912b 5529
000001e0: 97b0 fd2b 802e 79a9 dda6 7aaa 49ae a22b
000001f0: 4fab 4fae 8cb0 b0ac 4328 f12e 4a29 89a9
0.09735 0.06885 -0.1444 -0.0553 -0.0246 -0.1339 0.0648 0.05408
0.1555 0.04474 -0.1528 -0.1294 0.04678 0.0435 -0.1243 -0.125
-0.10455 0.1062 0.08624 -0.0671 0.1412 -0.0347 0.1552 -0.03723
-0.1003 0.12177 -0.03738 -0.12366 -0.10504 0.07324 -0.1011 0.04047
-0.1377 0.02338 -0.05392 -0.0729 -0.1539 -0.1475 -0.0483 -0.12115
0.04907 -0.0804 -0.1377 -0.06537 -0.1326 -0.1425 0.1487 0.1218
0.1427 0.1539 -0.1321 -0.1184 -0.0559 0.1334 -0.06696 -0.0929
-0.043 0.05807 0.1389 -0.145 0.11774 0.07635 -0.10443 0.01585
-0.1221 -0.07434 0.034 0.0705 0.05804 -0.12427 0.1136 0.07776
0.10065 0.12494 -0.0587 0.1138 0.0699 -0.1257 -0.05457 -0.0704
0.12134 -0.1517 0.0428 -0.11285 0.0638 -0.0841 -0.1459 0.0638
0.03885 0.0657 0.0567 0.08636 0.05865 0.0896 -0.1465 -0.1475
0.1587 0.0797 -0.0964 0.0857 0.1229 -0.1345 0.10156 -0.1045
0.154 -0.1024 -0.09064 0.0737 -0.05917 -0.0407 0.0898 -0.04556
-0.1129 0.03111 -0.02707 -0.09717 0.0884 0.1453 -0.0577 -0.0872
-0.0445 0.10785 -0.1575 0.1469 -0.1273 0.0218 0.1294 0.1328
-0.1426 0.1262 -0.1516 0.1187 -0.0531 0.0842 0.1193 0.1318
0.03757 -0.08606 -0.04944 0.05597 -0.04758 0.1476 0.02298 -0.06204
-0.0778 0.095 0.1403 -0.06223 -0.0952 0.06476 -0.1278 0.04272
-0.0935 0.05478 -0.07367 -0.158 0.03041 0.05566 0.12384 -0.06665
0.1135 0.149 -0.1531 0.02008 0.1493 0.0699 0.1536 -0.0472
0.0532 -0.0784 -0.05066 -0.04205 -0.1294 -0.0723 0.05627 -0.09186
-0.1052 -0.03497 -0.1506 -0.02907 0.065 0.158 -0.1394 0.0398
0.0953 0.0883 -0.0734 -0.082 0.0886 0.1433 0.1401 0.1543
0.04004 0.0698 -0.1389 -0.02965 0.0909 0.1123 -0.1133 0.1477
-0.02924 -0.1473 -0.1056 -0.06464 0.1278 -0.0712 0.0492 -0.1395
0.0261 0.07495 0.04037 0.03793 0.0842 0.0809 0.07587 0.03748
-0.0851 0.08075 -0.1442 -0.0924 0.0901 0.03708 -0.11066 0.122
0.05753 -0.03812 0.05988 -0.0929 0.03873 0.03004 -0.05154 -0.1471
0.03186 0.1353 0.0838 0.08405 0.1367 -0.1416 0.0591 0.04166
-0.1434 0.0624 0.10156 -0.04276 -0.02681 -0.0506 -0.0982 0.05963
-0.0571 -0.0986 -0.1421 -0.07324 0.0333 0.10846 0.04132 -0.04324

unstack2 f2 [768]
00000000: d59c 9219 25a1 4b18 9b99 0420 961f 3c91
00000010: 7b1c ae1a bf14 e403 1a8f 13a0 9a9a 651f
00000020: 8318 6f14 709c 8c9b df15 b495 1120 c198
00000030: 9313 b995 e298 c294 c218 e59e 3699 4e1c
00000040: e89c f79f 941c 0901 0815 d21d 8002 da99
00000050: 9090 c91b 541c dd98 de97 5820 9f99 6b9c
00000060: d419 7118 449d f918 bb94 2d1d 2d9e d211
00000070: 8315 d21e 4691 8492 318f b89b 1e99 608d
00000080: 769a 5984 d899 23a0 fe95 8918 c79f 3499
00000090: e918 628e 2a9c 141c a619 9f99 1d9d af1c
000000a0: 3b90 1f18 6097 5f1f 579d 9688 af96 5994
000000b0: f39c bc99 0899 779d d107 e419 6597 281d
000000c0: 209c ab17 6c19 b19d af1f 379a e91c ea1c
000000d0: 3511 2d9c ea9c d615 741d 9418 d99c 9f9c
000000e0: 0f9e 2598 f718 35a0 d909 861c 389c 7b0c
000000f0: 060c 9c1a 6198 229f a31d dd82 a498 c196
00000100: f08c a611 c314 ed9d 131c 3b9a 8e09 5d80
00000110: 5d1e 1398 b118 709b 6619 45a0 7f17 4407
00000120: 181a 1b9d 629f 7c9d c911 579d 1e1d b318
00000130: 041c fe99 c30c 339f 6914 e41a f81b 619b
00000140: cd16 809d 0519 819c 809e a19b 4512 7f1b
00000150: 0410 3816 3ea0 3517 e619 901a 911e 308f
00000160: 769d ee9c b613 e91b a91b 728c 0a9c 819d
00000170: 5f99 fd97 401c 191c 1d9b 701a db1a 1e90
00000180: 3e01 0a1c b896 7207 9b9c 26a1 3e8c 189d
00000190: f49a 799d b695 399a 611a 3919 049c bb19
000001a0: 5c03 451d bb91 569d 481c 4e0d 841a 0d10
000001b0: 8d13 c01a 3c1d 6710 b099 7e9d a51d 399c
000001c0: 951d c71d f111 f914 bc92 a912 bd1e 9d1c
000001d0: 1d19 7c19 a78e 449b fa19 3d9d 439f 319e
000001e0: fe9d 4216 5c1b 1818 e198 1c9f 561a 7f9c
000001f0: 391c 971d d61e af08 789c e11f 2f1c ed9f
-0.00472 0.00272 -0.01005 0.002096 -0.002737 0.00784 0.00741 -0.000639
0.004375 0.003262 0.001159 5.937e-05 -0.0004334 -0.00796 -0.003223 0.00722
0.002203 0.001082 -0.004333 -0.003685 0.001433 -0.001392 0.00794 -0.002321
0.0009246 -0.001397 -0.002384 -0.001162 0.002323 -0.006733 -0.002544 0.004204
-0.00479 -0.00778 0.00447 1.58e-05 0.001228 0.005684 3.815e-05 -0.002857
-0.000557 0.003801 0.004227 -0.002375 -0.001921 0.008484 -0.002745 -0.004314
0.002846 0.002169 -0.005142 0.002428 -0.001155 0.005054 -0.00603 0.0007105
0.001346 0.00666 -0.0006437 -0.0007954 -0.000439 -0.003769 -0.002499 -0.000328
-0.003155 -6.634e-05 -0.002853 -0.00808 -0.001463 0.002214 -0.007595 -0.00254
0.002398 -0.0003896 -0.004066 0.003983 0.002758 -0.002745 -0.004993 0.004574
-0.0005164 0.002012 -0.001801 0.0072 -0.005215 -0.00014 -0.001632 -0.001061
-0.004833 -0.0028 -0.002457 -0.005337 0.00011927 0.002876 -0.001805 0.005035
-0.00403 0.001872 0.002647 -0.005558 0.007504 -0.003035 0.004795 0.0048
0.0006356 -0.004078 -0.0048 0.001425 0.005325 0.002235 -0.004734 -0.004513
-0.005917 -0.002024 0.002424 -0.00822 0.0001785 0.004417 -0.00412 0.0002735
0.0002456 0.003227 -0.002138 -0.006966 0.005505 -4.37e-05 -0.002266 -0.001649
-0.0003014 0.0006895 0.001163 -0.005787 0.00398 -0.003042 0.0001695 -5.54e-06
0.006214 -0.00199 0.00229 -0.003632 0.002636 -0.00834 0.00183 0.00011086
0.002975 -0.004986 -0.00721 -0.005356 0.000706 -0.005215 0.004997 0.002295
0.00392 -0.002926 0.0002906 -0.00703 0.001077 0.003365 0.003891 -0.003603
0.00166 -0.00537 0.00245 -0.0044 -0.006348 -0.003725 0.0007653 0.00366
0.00049 0.001518 -0.008286 0.00176 0.00288 0.003204 0.006413 -0.0004387
-0.005333 -0.004814 0.0009413 0.003862 0.00374 -0.0002713 -0.003944 -0.005375
-0.002623 -0.00195 0.00415 0.004 -0.003473 0.003143 0.003347 -0.0005026
1.895e-05 0.003944 -0.00164 0.0001136 -0.004498 -0.010056 -0.000259 -0.004974
-0.003395 -0.005344 -0.001394 -0.003038 0.003115 0.00255 -0.00392 0.002798
5.126e-05 0.005146 -0.0006995 -0.00521 0.00418 0.0003238 0.003181 0.0004945
0.0009217 0.003296 0.00511 0.0005374 -0.002777 -0.005363 0.005512 -0.004124
0.00545 0.005642 0.0007253 0.001214 -0.000822 0.000813 0.00658 0.004505
0.002497 0.002678 -0.000406 -0.003548 0.002918 -0.005116 -0.00709 -0.006046
-0.00585 0.001528 0.003593 0.001999 -0.002382 -0.006943 0.003094 -0.00439
0.004124 0.00546 0.006676 0.0001429 -0.004364 0.007694 0.004086 -0.00774

unstack3 f2 [768]
00000000: d59c 9219 25a1 4b18 9b99 0420 961f 3c91
00000010: 7b1c ae1a bf14 e403 1a8f 13a0 9a9a 651f
00000020: 8318 6f14 709c 8c9b df15 b495 1120 c198
00000030: 9313 b995 e298 c294 c218 e59e 3699 4e1c
00000040: e89c f79f 941c 0901 0815 d21d 8002 da99
00000050: 9090 c91b 541c dd98 de97 5820 9f99 6b9c
00000060: d419 7118 449d f918 bb94 2d1d 2d9e d211
00000070: 8315 d21e 4691 8492 318f b89b 1e99 608d
00000080: 769a 5984 d899 23a0 fe95 8918 c79f 3499
00000090: e918 628e 2a9c 141c a619 9f99 1d9d af1c
000000a0: 3b90 1f18 6097 5f1f 579d 9688 af96 5994
000000b0: f39c bc99 0899 779d d107 e419 6597 281d
000000c0: 209c ab17 6c19 b19d af1f 379a e91c ea1c
000000d0: 3511 2d9c ea9c d615 741d 9418 d99c 9f9c
000000e0: 0f9e 2598 f718 35a0 d909 861c 389c 7b0c
000000f0: 060c 9c1a 6198 229f a31d dd82 a498 c196
00000100: f08c a611 c314 ed9d 131c 3b9a 8e09 5d80
00000110: 5d1e 1398 b118 709b 6619 45a0 7f17 4407
00000120: 181a 1b9d 629f 7c9d c911 579d 1e1d b318
00000130: 041c fe99 c30c 339f 6914 e41a f81b 619b
00000140: cd16 809d 0519 819c 809e a19b 4512 7f1b
00000150: 0410 3816 3ea0 3517 e619 901a 911e 308f
00000160: 769d ee9c b613 e91b a91b 728c 0a9c 819d
00000170: 5f99 fd97 401c 191c 1d9b 701a db1a 1e90
00000180: 3e01 0a1c b896 7207 9b9c 26a1 3e8c 189d
00000190: f49a 799d b695 399a 611a 3919 049c bb19
000001a0: 5c03 451d bb91 569d 481c 4e0d 841a 0d10
000001b0: 8d13 c01a 3c1d 6710 b099 7e9d a51d 399c
000001c0: 951d c71d f111 f914 bc92 a912 bd1e 9d1c
000001d0: 1d19 7c19 a78e 449b fa19 3d9d 439f 319e
000001e0: fe9d 4216 5c1b 1818 e198 1c9f 561a 7f9c
000001f0: 391c 971d d61e af08 789c e11f 2f1c ed9f
-0.00472 0.00272 -0.01005 0.002096 -0.002737 0.00784 0.00741 -0.000639
0.004375 0.003262 0.001159 5.937e-05 -0.0004334 -0.00796 -0.003223 0.00722
0.002203 0.001082 -0.004333 -0.003685 0.001433 -0.001392 0.00794 -0.002321
0.0009246 -0.001397 -0.002384 -0.001162 0.002323 -0.006733 -0.002544 0.004204
-0.00479 -0.00778 0.00447 1.58e-05 0.001228 0.005684 3.815e-05 -0.002857
-0.000557 0.003801 0.004227 -0.002375 -0.001921 0.008484 -0.002745 -0.004314
0.002846 0.002169 -0.005142 0.002428 -0.001155 0.005054 -0.00603 0.0007105
0.001346 0.00666 -0.0006437 -0.0007954 -0.000439 -0.003769 -0.002499 -0.000328
-0.003155 -6.634e-05 -0.002853 -0.00808 -0.001463 0.002214 -0.007595 -0.00254
0.002398 -0.0003896 -0.004066 0.003983 0.002758 -0.002745 -0.004993 0.004574
-0.0005164 0.002012 -0.001801 0.0072 -0.005215 -0.00014 -0.001632 -0.001061
-0.004833 -0.0028 -0.002457 -0.005337 0.00011927 0.002876 -0.001805 0.005035
-0.00403 0.001872 0.002647 -0.005558 0.007504 -0.003035 0.004795 0.0048
0.0006356 -0.004078 -0.0048 0.001425 0.005325 0.002235 -0.004734 -0.004513
-0.005917 -0.002024 0.002424 -0.00822 0.0001785 0.004417 -0.00412 0.0002735
0.0002456 0.003227 -0.002138 -0.006966 0.005505 -4.37e-05 -0.002266 -0.001649
-0.0003014 0.0006895 0.001163 -0.005787 0.00398 -0.003042 0.0001695 -5.54e-06
0.006214 -0.00199 0.00229 -0.003632 0.002636 -0.00834 0.00183 0.00011086
0.002975 -0.004986 -0.00721 -0.005356 0.000706 -0.005215 0.004997 0.002295
0.00392 -0.002926 0.0002906 -0.00703 0.001077 0.003365 0.003891 -0.003603
0.00166 -0.00537 0.00245 -0.0044 -0.006348 -0.003725 0.0007653 0.00366
0.00049 0.001518 -0.008286 0.00176 0.00288 0.003204 0.006413 -0.0004387
-0.005333 -0.004814 0.0009413 0.003862 0.00374 -0.0002713 -0.003944 -0.005375
-0.002623 -0.00195 0.00415 0.004 -0.003473 0.003143 0.003347 -0.0005026
1.895e-05 0.003944 -0.00164 0.0001136 -0.004498 -0.010056 -0.000259 -0.004974
-0.003395 -0.005344 -0.001394 -0.003038 0.003115 0.00255 -0.00392 0.002798
5.126e-05 0.005146 -0.0006995 -0.00521 0.00418 0.0003238 0.003181 0.0004945
0.0009217 0.003296 0.00511 0.0005374 -0.002777 -0.005363 0.005512 -0.004124
0.00545 0.005642 0.0007253 0.001214 -0.000822 0.000813 0.00658 0.004505
0.002497 0.002678 -0.000406 -0.003548 0.002918 -0.005116 -0.00709 -0.006046
-0.00585 0.001528 0.003593 0.001999 -0.002382 -0.006943 0.003094 -0.00439
0.004124 0.00546 0.006676 0.0001429 -0.004364 0.007694 0.004086 -0.00774

while/MatMul_1 f2 [768, 256]
00000000: 86a5 891a 52a4 c11f a128 1525 a623 fba6
00000010: 98a8 4792 3825 ce2b 72aa f425 2daa 6229
00000020: 242b 90a4 69aa d729 bea4 0923 7427 0327
00000030: c19c 48a7 8da8 bb2c 9629 ed2c 72a1 54a6
00000040: 0323 29aa 499c 2ca6 aa28 db2a 97a8 afad
00000050: c71c 7c9c ae2a 85a8 5c92 0922 5f2b 61a1
00000060: a81b 2a29 cfa6 bf29 73ad f9a2 3121 839e
00000070: 7ba9 3baa 75a7 83ab 9e29 77a5 a824 9727
00000080: 6f1d 8a23 702a 5b27 6b28 1ba9 08ac bf28
00000090: 4b2a 93aa ab24 6ba2 559f 230d d72b 1c1c
000000a0: b7a5 3528 3b26 48a8 1126 98a7 f7a7 f726
000000b0: f5a2 e123 9c25 4625 04a9 0e1e 9328 49a8
000000c0: 0aa2 d0a8 4828 a5a0 f3a2 76a6 ed23 2da6
000000d0: d7a1 4d25 44a3 b3a8 53a5 eba2 469f 22a9
000000e0: 9f28 d4a8 7522 f0a9 c425 502d da21 3925
000000f0: d29f 7f28 94a4 c914 1e2e 5aa7 88a5 ad91
00000100: 31ab 1816 74a4 78a4 e124 9d24 092c 41ac
00000110: ac20 1015 e729 ffa4 d521 f59e f6a0 5d24
00000120: 382b c3a9 15a1 a324 7025 379d bf27 8924
00000130: 8a19 1826 de9f 9ea5 2819 1fab 04a8 9429
00000140: f7a9 74a4 ae25 6f21 dfad eea9 9f27 b4a0
00000150: 6f26 162d 1ca7 122a 4717 720f c424 2daa
00000160: 6c2b 8221 dc1e 93a2 f121 c02a 2328 64a9
00000170: 6e25 0ea2 16a3 2a27 aaaa 739f 9921 acab
00000180: 03ac be24 852d 6a28 b0a0 1124 8415 d3a4
00000190: c5a9 0520 83a2 2ea6 0028 6ca7 51a5 062c
000001a0: b0a2 3626 6cad f52a 1e24 19a4 55ab c82a
000001b0: 48ad 63a7 f32a 76a2 8b2b b3ae 2d94 0c28
000001c0: 7929 d621 ce25 0b29 be2c f5a9 80a9 2f9d
000001d0: eca6 4e2c cd2a 8fab 5f9f 3e23 01a9 1ca9
000001e0: bd29 d429 821d a428 05a3 caa2 56a4 a524
000001f0: a9ab 6da3 7025 1cac 17a2 cda1 2027 91aa
-0.02158 0.003191 -0.01688 0.007572 0.03616 0.01985 0.01494 -0.02727
-0.0359 -0.0007663 0.02039 0.06097 -0.05035 0.02325 -0.04825 0.04205
0.0558 -0.01782 -0.05008 0.04562 -0.01852 0.01374 0.02911 0.02739
-0.004642 -0.02844 -0.03555 0.0739 0.04364 0.07697 -0.010635 -0.02472
0.013695 -0.04813 -0.004185 -0.02411 0.03644 0.05356 -0.03586 -0.0888
0.004665 -0.00438 0.0522 -0.0353 -0.0007763 0.01179 0.0576 -0.010506
0.003738 0.04034 -0.0266 0.0449 -0.08514 -0.01362 0.01014 -0.00636
-0.04282 -0.04868 -0.02913 -0.0587 0.04388 -0.02135 0.01819 0.02965
0.005306 0.014725 0.0503 0.02873 0.03452 -0.0399 -0.063 0.03708
0.04916 -0.05136 0.01823 -0.012535 -0.00716 0.0003135 0.06125 0.004013
-0.02232 0.03287 0.02434 -0.03345 0.0237 -0.02966 -0.03111 0.0272
-0.01359 0.01539 0.02191 0.0206 -0.03918 0.005913 0.03574 -0.03348
-0.011795 -0.0376 0.03345 -0.00907 -0.01357 -0.02524 0.01548 -0.02412
-0.011406 0.0207 -0.01419 -0.0367 -0.0208 -0.01351 -0.007103 -0.0401
0.0361 -0.03772 0.01261 -0.0464 0.02252 0.083 0.01143 0.0204
-0.007637 0.03513 -0.01788 0.001168 0.0956 -0.02872 -0.0216 -0.000693
-0.05618 0.001488 -0.0174 -0.01746 0.01906 0.01802 0.06305 -0.06647
0.009125 0.001236 0.0461 -0.01952 0.01139 -0.006794 -0.00969 0.01704
0.0564 -0.045 -0.009926 0.01811 0.02124 -0.005093 0.03026 0.01772
0.002705 0.0238 -0.007683 -0.02194 0.002518 -0.05563 -0.03137 0.04358
-0.0466 -0.0174 0.02219 0.01061 -0.09174 -0.04633 0.02977 -0.009186
0.02513 0.07947 -0.02777 0.04742 0.001777 0.0004544 0.01862 -0.04825
0.05798 0.01076 0.0067 -0.01284 0.011604 0.05273 0.03232 -0.0421
0.02121 -0.011826 -0.01384 0.02798 -0.05206 -0.007275 0.01093 -0.05994
-0.0627 0.01852 0.08624 0.0345 -0.009155 0.01588 0.001347 -0.01884
-0.04507 0.00785 -0.01272 -0.02414 0.03125 -0.02899 -0.02077 0.06287
-0.01306 0.02426 -0.0847 0.05435 0.01608 -0.016 -0.05728 0.05298
-0.0825 -0.02885 0.0543 -0.01262 0.05893 -0.1047 -0.0010195 0.03162
0.04276 0.0114 0.02267 0.0394 0.0741 -0.04654 -0.04297 -0.005062
-0.02704 0.06726 0.05313 -0.05905 -0.0072 0.014145 -0.0391 -0.03992
0.04483 0.04553 0.00538 0.03625 -0.01371 -0.01326 -0.01694 0.01814
-0.05984 -0.0145 0.02124 -0.0642 -0.011894 -0.01133 0.02783 -0.0513

while/MatMul f2 [768, 32]
00000000: 59ad f1a4 3a2d 3029 f92a f29c 56a8 4920
00000010: 0b29 c9a8 18a5 300d faab 072c d31d 91ac
00000020: 3bac 5828 f3ac dd21 d52c 13a8 e124 0d25
00000030: 1caa 9c29 4199 ca22 3cac 262c 9125 b0a9
00000040: 1da3 dc27 9cac 5fac 922d b2a3 ee2b 582d
00000050: 03a9 07ab e5a7 b3aa 7cac 3f28 0c29 3c9e
00000060: 5fac ec20 932b 70a4 8bad c8ac 1bac b629
00000070: ccab 29a9 47a0 e829 7fa4 26ac ff1d 1b20
00000080: a1ad cd24 d629 c4aa 91aa c12c 76a9 92ad
00000090: 0da9 3d28 2f29 6a99 2f2b 66ad 9dab feac
000000a0: 0d2c 232a a09e c2ac a7ac 1c2c dba8 6a27
000000b0: 5aa8 69ac 9a24 6bab d92b f2a9 2e2c 2b23
000000c0: b42c 422c fbaa a929 3f28 48ab e52c 8426
000000d0: c328 0aa0 68ad 2f24 8820 9e26 9fab f3ac
000000e0: e62c 75ac 80a8 592d 7625 6029 7d2b 75a2
000000f0: 09a8 551e 5529 b229 49ad 23a1 03a0 cbab
00000100: f728 06a2 28ac a62c 19a2 9d29 22ac 52a4
00000110: bcab a626 21ab 8226 c729 9ea0 74a4 b9ac
00000120: 7820 521d 3c2a ffab 781d 69ac ea27 1e2d
00000130: c726 672b b6a0 26ad f0a3 0725 9a29 19ac
00000140: 7828 2d23 3425 822d 5dac a828 afab 57a8
00000150: 78a9 6ca8 cbaa 13ab 4a9c ecab 3e2c 6929
00000160: 7c27 342b dbac 462d 0a2c 1a28 aaa5 c2ab
00000170: 882d 85a3 7f23 daac 78ad 6c2d 0da8 96a8
00000180: 5920 6c2d 539f c9a4 d1a8 26aa 38ac 882c
00000190: 6225 b529 f5ac 9ead a82a 62a8 7ea5 91ac
000001a0: 3dac b6a6 eb1d f2ab 23a5 242d 6eab 58a9
000001b0: e529 59ac 64a4 f1ac b429 8029 092b 83ac
000001c0: 60a8 6529 07a8 4f21 ecac 231d f298 59ad
000001d0: 611c 0426 9ca7 ccac 9129 6c2c c4aa 2428
000001e0: 72ad 0226 c328 d1ac 29ac afa2 70ac 6828
000001f0: 4bac fea5 4a28 d61c 5f28 fbac 472c 4125
-0.08356 -0.0193 0.08167 0.04053 0.05447 -0.00483 -0.03387 0.00837
0.0394 -0.03738 -0.0199 0.0003166 -0.06232 0.0629 0.005688 -0.07135
-0.0661 0.03394 -0.07733 0.01145 0.0755 -0.03183 0.01906 0.01973
-0.04773 0.04382 -0.002565 0.01326 -0.06616 0.0648 0.02174 -0.04443
-0.01389 0.0307 -0.072 -0.0683 0.08704 -0.01503 0.06195 0.0835
-0.03915 -0.0549 -0.03084 -0.05234 -0.07007 0.03317 0.03943 -0.00609
-0.0683 0.00961 0.05917 -0.01733 -0.0866 -0.0747 -0.06415 0.04462
-0.0609 -0.0403 -0.008354 0.04614 -0.01756 -0.0648 0.005856 0.00802
-0.08795 0.01875 0.0456 -0.05286 -0.0513 0.0743 -0.04266 -0.08704
-0.03946 0.0331 0.0405 -0.002644 0.05612 -0.08435 -0.05948 -0.078
0.0633 0.04794 -0.00647 -0.07434 -0.0727 0.0642 -0.03793 0.02896
-0.034 -0.0689 0.01797 -0.05795 0.0613 -0.04645 0.0653 0.014
0.0735 0.0665 -0.05453 0.04422 0.03317 -0.0569 0.0765 0.02545
0.0372 -0.00789 -0.0845 0.01634 0.00885 0.02585 -0.05954 -0.07733
0.07654 -0.06964 -0.03516 0.08356 0.02133 0.042 0.0585 -0.01261
-0.03152 0.006184 0.04166 0.0445 -0.0826 -0.01003 -0.007835 -0.06088
0.0388 -0.011765 -0.06494 0.07263 -0.01191 0.04385 -0.0646 -0.01688
-0.06042 0.02597 -0.0557 0.02542 0.04514 -0.00902 -0.0174 -0.0738
0.00873 0.005196 0.0487 -0.06247 0.00534 -0.0689 0.03091 0.07996
0.02647 0.05783 -0.0092 -0.08044 -0.0155 0.01964 0.04376 -0.064
0.0349 0.014015 0.02032 0.08606 -0.0682 0.03638 -0.06003 -0.0339
-0.04272 -0.03455 -0.05307 -0.05527 -0.00419 -0.0619 0.0663 0.04227
0.02924 0.05627 -0.07587 0.0824 0.0631 0.03204 -0.02213 -0.0606
0.0864 -0.01469 0.01464 -0.0758 -0.08545 0.0847 -0.03165 -0.03583
0.00849 0.0847 -0.007153 -0.01869 -0.03763 -0.04803 -0.0659 0.0708
0.02103 0.0446 -0.07745 -0.08777 0.052 -0.03424 -0.02145 -0.07135
-0.0662 -0.02621 0.00578 -0.06207 -0.02007 0.0803 -0.05804 -0.04175
0.04605 -0.06793 -0.01715 -0.0772 0.04456 0.04297 0.05496 -0.0705
-0.03418 0.04214 -0.03146 0.01037 -0.0769 0.005016 -0.002415 -0.08356
0.004276 0.0235 -0.02972 -0.07495 0.0435 0.0691 -0.05286 0.03235
-0.0851 0.02347 0.0372 -0.07526 -0.065 -0.013054 -0.06934 0.03442
-0.0671 -0.0234 0.0335 0.004723 0.03415 -0.0778 0.06683 0.02052
