app/src/main/python/final_mod_2.tflite (tflite, 460332 bytes, 14 tensors)

conv1d/bias f4 [32]
0	0xb0911a6b	-1.0557647e-09
1	0xafc079ff	-3.501128e-10
2	0xb113e7de	-2.1523117e-09
3	0x2fe58727	4.175089e-10
4	0x31868bc3	3.9158023e-09
5	0xb1a5d9de	-4.8269007e-09
6	0xaf004f46	-1.1669696e-10
7	0x30837fd4	9.567835e-10
8	0xaf3fa302	-1.7429261e-10
9	0xaf845753	-2.4072708e-10
10	0x2f95a2d4	2.7218638e-10
11	0xaf3aa180	-1.6973978e-10
12	0x2f8b2fd4	2.5317937e-10
13	0x31aba402	4.9954005e-09
14	0x30cb4381	1.478938e-09
15	0xb050da0f	-7.597984e-10
16	0xb0c6159f	-1.4412541e-09
17	0xb13b5d27	-2.7265032e-09
18	0x2fcccbbe	3.725215e-10
19	0xb135b654	-2.6442608e-09
20	0xb126f797	-2.4296918e-09
21	0x308975ce	1.0001544e-09
22	0xafb262d3	-3.244823e-10
23	0xaf3e16c2	-1.7288485e-10
24	0x30b60e63	1.3246332e-09
25	0xb01638b3	-5.4650257e-10
26	0x30035353	4.7775933e-10
27	0xb04c6549	-7.43587e-10
28	0xaf54448c	-1.930564e-10
29	0xafb153cc	-3.2255654e-10
30	0x30c25c8d	1.4141662e-09
31	0x2ff5f5ca	4.4739884e-10

std.constant9 f4 [32]
0	0x3747c2fa	1.1906721e-05
1	0x372246eb	9.672464e-06
2	0x37257e5b	9.864186e-06
3	0x3754e5ec	1.2689718e-05
4	0x37457593	1.176949e-05
5	0x3720dc72	9.58807e-06
6	0x375b619c	1.3076144e-05
7	0x3736d9a8	1.0898722e-05
8	0x373edb70	1.1375974e-05
9	0x372c9b03	1.028809e-05
10	0x373be883	1.1200204e-05
11	0x373bd462	1.1195518e-05
12	0x370ba25f	8.322851e-06
13	0x372f7675	1.0458393e-05
14	0x3727d786	1.0004156e-05
15	0x3746ece6	1.1856877e-05
16	0x3748331b	1.1932828e-05
17	0x3760cac4	1.33986505e-05
18	0x37133f87	8.776674e-06
19	0x36da5961	6.5073114e-06
20	0x372df62a	1.0368918e-05
21	0x373cd699	1.1255638e-05
22	0x3744122c	1.1686741e-05
23	0x37135858	8.782452e-06
24	0x3739c46f	1.1072595e-05
25	0x373c3306	1.1217553e-05
26	0x3736ec32	1.0903039e-05
27	0x3752f7eb	1.2574698e-05
28	0x3741f313	1.1560292e-05
29	0x373145c8	1.0566269e-05
30	0x3748ce18	1.1968914e-05
31	0x372e6bd1	1.0396311e-05

std.constant10 f4 [32]
0	0x3cebbc86	0.028776418
1	0xbd7e211a	-0.062043287
2	0x3d3faba4	0.04679455
3	0x3c35b417	0.0110903
4	0x3b8e163a	0.0043361457
5	0x3caad14e	0.020851757
6	0x3c852994	0.016255178
7	0xbd67160a	-0.056417502
8	0x3c511a94	0.012762684
9	0x3cc546ec	0.02408167
10	0x3b8679d0	0.0041038767
11	0xbd503920	-0.05083573
12	0xb99310e0	-0.00028050598
13	0x3d72b3d8	0.059253544
14	0x3cac972a	0.021068174
15	0x3b99c420	0.0046925694
16	0xbcba9076	-0.022773962
17	0xbd25d85c	-0.04048954
18	0x3ce4dd4b	0.027937552
19	0x3d8598e4	0.06523302
20	0x3d3c2d68	0.04594174
21	0xbb38a4aa	-0.002817432
22	0xbd70dced	-0.05880444
23	0xbdbb023e	-0.09131287
24	0x3c71c1d2	0.014755683
25	0xbd592357	-0.05301222
26	0x39bae9c8	0.00035650865
27	0xbb959894	-0.004565308
28	0x3c1cc164	0.009567592
29	0xbd9b6423	-0.07587459
30	0x3b1e7fb8	0.0024185013
31	0xbc812557	-0.015764875

std.constant11 f4 [128]
0	0x4089fb4b	4.3119254
1	0x408ec557	4.4615893
2	0x408813a5	4.252398
3	0x4087e219	4.24635
4	0x408ae47b	4.3403907
5	0x40883c89	4.2573895
6	0x408c5359	4.3851743
7	0x408e1766	4.4403563
8	0x40863f07	4.195194
9	0x4088ef9a	4.279248
10	0x4089bd6c	4.304373
11	0x408efcc6	4.468356
12	0x40865c5a	4.1987734
13	0x4085bb2a	4.179097
14	0x4089f229	4.3108106
15	0x408d0c41	4.407746
16	0x4087fbb3	4.249475
17	0x40923f06	4.5701933
18	0x40883115	4.2559915
19	0x40937a37	4.608669
20	0x408b2518	4.348278
21	0x40906642	4.5124826
22	0x408eb121	4.459122
23	0x4093699d	4.6066422
24	0x408d5b61	4.4174047
25	0x40910bbd	4.532683
26	0x4088521e	4.260024
27	0x4081fd12	4.0621424
28	0x408df2df	4.4358974
29	0x40879749	4.2372174
30	0x408eb46f	4.4595256
31	0x408877e7	4.2646365
32	0x4085325f	4.162399
33	0x408b6c81	4.356995
34	0x40889134	4.267725
35	0x4088bd41	4.2731023
36	0x409234dd	4.568953
37	0x408a27a0	4.317337
38	0x408dcca1	4.431229
39	0x408a1b21	4.3158116
40	0x408c1ccd	4.3785157
41	0x408fc378	4.492611
42	0x408f6109	4.480595
43	0x408979e8	4.296131
44	0x40906e2e	4.5134497
45	0x4088fa3f	4.2805476
46	0x408cb906	4.397586
47	0x408ccb08	4.399784
48	0x40885a8b	4.2610526
49	0x408d7c48	4.421421
50	0x4090efff	4.5292964
51	0x408cc958	4.399578
52	0x40877f47	4.234287
53	0x408aaf37	4.3338885
54	0x4089fa3f	4.3117976
55	0x408a0338	4.312893
56	0x40893fa5	4.289019
57	0x408a5da2	4.32393
58	0x408ec39d	4.4613786
59	0x408ff8e1	4.4991307
60	0x408dfe9d	4.4373307
61	0x408cf7f2	4.405267
62	0x40882330	4.2542953
63	0x408cf442	4.4048166
64	0x408fab6f	4.489677
65	0x4092b145	4.5841393
66	0x4080c0a9	4.023518
67	0x408bce4c	4.3689327
68	0x4094662b	4.6374717
69	0x4084ca48	4.1496925
70	0x408b3a0d	4.3508363
71	0x40898c85	4.2984033
72	0x40871491	4.2212605
73	0x408938b3	4.2881713
74	0x4084f2df	4.1546474
75	0x408bdafc	4.3704815
76	0x408c21ad	4.379111
77	0x408d365a	4.4128847
78	0x408c411d	4.3829484
79	0x408cd0fd	4.4005113
80	0x4087e6da	4.24693
81	0x40897dc9	4.2966046
82	0x4091cd79	4.556332
83	0x40827c77	4.0776935
84	0x40873358	4.2250175
85	0x4087b5be	4.2409353
86	0x408e542b	4.4477744
87	0x408888f3	4.2667174
88	0x4090eb18	4.528698
89	0x409097f0	4.518547
90	0x408bcd41	4.3688054
91	0x408586eb	4.1727195
92	0x40894b7e	4.2904654
93	0x40817139	4.045071
94	0x408a394a	4.3194933
95	0x408215f2	4.065179
96	0x40868e9a	4.2049074
97	0x4089c9b6	4.305873
98	0x40904cc3	4.5093703
99	0x408e9b4a	4.456456
100	0x40916cbc	4.5445232
101	0x408ae79c	4.3407726
102	0x40877c88	4.2339516
103	0x40864997	4.196483
104	0x40862c9a	4.1929445
105	0x40897fb0	4.296837
106	0x40904fdf	4.50975
107	0x408c9f35	4.3944345
108	0x40875a09	4.2297406
109	0x408dbe9a	4.429517
110	0x40904060	4.5078583
111	0x408e82ac	4.453451
112	0x408599a4	4.175005
113	0x4089c653	4.3054595
114	0x408d5e57	4.417766
115	0x4080a727	4.0204043
116	0x408ba8fc	4.364378
117	0x4082675c	4.075117
118	0x408d13eb	4.4086814
119	0x40896ef2	4.294793
120	0x4088b2b4	4.2718143
121	0x40857bfc	4.171385
122	0x408da018	4.4257927
123	0x408b6405	4.3559594
124	0x4091632a	4.543355
125	0x408af191	4.341988
126	0x4089b198	4.302929
127	0x4091abd6	4.552226

std.constant12 f4 [128]
0	0x3c71751c	0.014737394
1	0x3c7a902a	0.01529316
2	0x3c9b48d0	0.018955618
3	0xbda6d714	-0.08146492
4	0xbcdae532	-0.026720617
5	0x3d816bd0	0.06319392
6	0x3c6b93c8	0.0143784955
7	0xbc272469	-0.010201552
8	0x3d593a1c	0.053033933
9	0x3d82cf69	0.063872166
10	0xbc7fd55e	-0.015614836
11	0xbc0b0ba7	-0.008486665
12	0x3d78fb2e	0.06078642
13	0xbd204568	-0.03912869
14	0xbc68ef6b	-0.014217238
15	0x3d923ec4	0.07140878
16	0x3d6deb23	0.058085572
17	0x3b2132d0	0.0024596937
18	0xbd04a27e	-0.032381527
19	0xbcf13a8c	-0.029446863
20	0xbce03ae1	-0.027371826
21	0xbb6013f0	-0.0034191571
22	0xbcb7e9c0	-0.022450328
23	0x3b0dd69c	0.002164281
24	0xbd6326b6	-0.05545684
25	0x3c9fb5f2	0.019495938
26	0x3d2e14e5	0.042500395
27	0xbd9fa71c	-0.077955455
28	0xbcc4bc08	-0.024015442
29	0xbd9524d4	-0.07282415
30	0xbc635988	-0.013876326
31	0xba747cb0	-0.0009326441
32	0x3db2d3cd	0.08731804
33	0x3d5e073a	0.05420611
34	0x3cc7fb4c	0.02441182
35	0x3d550415	0.052005846
36	0xbcf5e6fe	-0.030017372
37	0xbced091c	-0.028935008
38	0xb92f8b40	-0.00016741175
39	0xbbd22068	-0.0064125545
40	0x3c796737	0.015222362
41	0xbc8553ff	-0.016275404
42	0x3c5b98de	0.013403146
43	0x3cb10bb0	0.021612018
44	0x3d17bfee	0.037048273
45	0x3c0dab9a	0.00864687
46	0x3d1efdf7	0.03881642
47	0xbb8456f2	-0.004038685
48	0x3c6e5787	0.014547235
49	0xbbff0d0e	-0.0077835387
50	0xbd058a40	-0.03260255
51	0xbd337bd9	-0.043819282
52	0x3d0bd926	0.034142636
53	0x3d4ceed6	0.05003246
54	0x3ce774b5	0.028253892
55	0xbc560918	-0.013063692
56	0x3ca62dea	0.020285565
57	0xbbffc4d6	-0.007805447
58	0x3c174f5e	0.009235231
59	0xbcfa09bb	-0.030522218
60	0xbd1beb92	-0.038066454
61	0xbb48b494	-0.003062521
62	0x3c761566	0.01501975
63	0x3d3d2bbc	0.046184286
64	0x3b7e77fc	0.003882884
65	0xba6f48e0	-0.00091279857
66	0xbdfd8043	-0.123779796
67	0xbb988f60	-0.0046557635
68	0x3c68d021	0.014209778
69	0xbd8defa4	-0.069304734
70	0xbda53753	-0.08067193
71	0x3d2a1e58	0.041532844
72	0xbccf8989	-0.025334137
73	0xbd1a1676	-0.037619077
74	0x3dd88862	0.10572888
75	0xbc53fb88	-0.012938388
76	0xbb8df76e	-0.0043324744
77	0xbc42648b	-0.011864792
78	0xbc6926b4	-0.014230419
79	0xbdbbc25a	-0.09167929
80	0xbc617ee2	-0.013763161
81	0xba570450	-0.0008202242
82	0x3d24c38a	0.040225543
83	0x3ded1847	0.11576896
84	0x3dae7c16	0.08519761
85	0x3caeb28c	0.021325372
86	0xbbd20b44	-0.0064100344
87	0xbbffa166	-0.0078012226
88	0x3cdf3c72	0.027250502
89	0x3b9c3f5c	0.004768295
90	0x3d9a7fa6	0.07543878
91	0xbda37e6d	-0.07983098
92	0xbc094c4c	-0.008380007
93	0xbdafc1e5	-0.08581904
94	0xbc20b85c	-0.00980958
95	0x3d0298c7	0.03188398
96	0x3d6913e7	0.056903746
97	0x3c2693a5	0.010167037
98	0xbb3eaddc	-0.0029095327
99	0xbc001d48	-0.007819481
100	0xba1aa020	-0.0005898494
101	0x3d28c502	0.041203506
102	0x3b4697a0	0.0030302778
103	0xbdc47c0c	-0.095939726
104	0xbb99927e	-0.0046866527
105	0x3d301083	0.042984497
106	0xbc6a46e1	-0.014299125
107	0x3d2e533c	0.042559847
108	0xbca88e3f	-0.02057564
109	0xbc83b5b0	-0.016077846
110	0xbc5de053	-0.013542253
111	0xba7dc080	-0.0009679869
112	0xbd03f298	-0.032213777
113	0x3d2e9cb0	0.042629898
114	0x3acbe578	0.0015556058
115	0x3da1c12e	0.07898174
116	0x3b585cc8	0.0033014286
117	0x3d53b8ef	0.05169004
118	0x3ce0cc3a	0.027441133
119	0x3d64c6ae	0.05585354
120	0xbd5eaa0c	-0.054361388
121	0xbd7deda1	-0.0619942
122	0x3c033344	0.008007828
123	0x3cda0ad3	0.02661649
124	0x3c71d55a	0.01476034
125	0x3ccd7aff	0.025083063
126	0xbb6de81c	-0.0036301678
127	0xbc04f3af	-0.008114739

std.constant13 f4 [384]
0	0x3bfb134f	0.007662214
1	0xbbc95775	-0.006144459
2	0x3a43c2d0	0.0007467689
3	0x3b048766	0.0020222305
4	0xbb3fe473	-0.0029280453
5	0xba9d2332	-0.0011988638
6	0x3a493f51	0.00076769764
7	0xbaa1820a	-0.001232208
8	0x3a8acd88	0.0010589818
9	0x3bee036f	0.007263593
10	0x39e2c963	0.00043256124
11	0x3a03121d	0.00049999525
12	0xbbda9875	-0.0066710063
13	0xbbb4c8c9	-0.0055170995
14	0x3b2b4262	0.0026132097
15	0xbbbde5b7	-0.0057952064
16	0x3c0b0df7	0.008487216
17	0x3bceb6b5	0.0063084015
18	0x3b0155cb	0.0019734974
19	0xbaa545b1	-0.0012609271
20	0x3c04a940	0.008096993
21	0xbb07ca3d	-0.0020719909
22	0x3b9d0869	0.0047922623
23	0x3a82bb91	0.0009974112
24	0xbbc572d9	-0.006025654
25	0x3b550192	0.0032502157
26	0xbb4d5753	-0.0031332567
27	0xbc0900a6	-0.008361971
28	0x3b31b715	0.0027117182
29	0x392d6d40	0.00016539264
30	0xbbfe3707	-0.0077580246
31	0x3ad65a67	0.0016353846
32	0xbb0a0964	-0.0021062726
33	0xbb684b62	-0.0035445322
34	0x3b9a4973	0.004708463
35	0xbb54792f	-0.0032420864
36	0xbb261616	-0.0025342754
37	0x3b3c5324	0.002873608
38	0x3a7f7a01	0.0009745658
39	0x3baa4bc0	0.0051970184
40	0xb9fb1b63	-0.00047894855
41	0xbb086cdc	-0.0020816838
42	0xbb950e18	-0.0045487992
43	0x3bd0e77b	0.006375251
44	0x3bd2b663	0.0064304336
45	0x3b281b36	0.0025650985
46	0x3b8c1b5b	0.004275722
47	0x3c07c866	0.008287525
48	0xbbffa8ef	-0.007802121
49	0xbb1d7e36	-0.0024031526
50	0x3b30f824	0.0027003372
51	0x3ac1f145	0.0014796635
52	0xbb1c2c98	-0.002383029
53	0x3a502ca2	0.0007941221
54	0x3c0033f6	0.007824888
55	0xbc079bdf	-0.008276909
56	0xbc343b14	-0.011000413
57	0xbab032d1	-0.0013442879
58	0x3bad709e	0.005292966
59	0x3aa99280	0.0012937337
60	0x3a8515f5	0.0010153638
61	0x3b88b233	0.0041716336
62	0xbbd2e4d0	-0.006435968
63	0x3b3f856f	0.002922382
64	0xba91def1	-0.0011129064
65	0x3b80410a	0.0039140033
66	0x3bcd876d	0.0062722475
67	0xbc06b8e6	-0.008222794
68	0xbc0ca0ae	-0.008583231
69	0xb953b387	-0.00020189407
70	0xbbfd8118	-0.0077363364
71	0x3b7262e2	0.0036985208
72	0xba06d457	-0.00051433354
73	0x3bb9d1f6	0.0056707812
74	0x3b20fe54	0.0024565654
75	0x3a0c5f9e	0.0005354824
76	0xbbe93ff3	-0.007118219
77	0xbad99c08	-0.0016602287
78	0x3ac5ebd8	0.0015100194
79	0x393dde61	0.00018107287
80	0xba2cb6df	-0.0006588529
81	0x3b2309c3	0.0024877645
82	0x3b577bb7	0.0032880136
83	0x3be9e8e8	0.0071383603
84	0x3bec6bea	0.007215013
85	0xbb821de9	-0.0039708507
86	0x3b07e295	0.0020734419
87	0xba5211b0	-0.00080135
88	0x3bf9a9c1	0.007619113
89	0x3a5c4d0b	0.0008403814
90	0x3b835dcb	0.0040089837
91	0x39345ee8	0.00017201493
92	0x3b94bdc5	0.004539224
93	0x3c03a185	0.008034115
94	0xbb9c5aef	-0.0047715823
95	0xbc0817d9	-0.008306467
96	0x3b93a5e2	0.0045058588
97	0x3b8f9144	0.0043813307
98	0xbbc455e4	-0.0059916843
99	0xb8055e14	-3.1797288e-05
100	0xbb9cd0b0	-0.0047856197
101	0x3bb8ed20	0.005643502
102	0xbb327c3f	-0.00272347
103	0xbb2c497f	-0.0026288924
104	0x3b5ce451	0.0033705423
105	0x3baacd1c	0.005212439
106	0xbbb0f708	-0.005400542
107	0x3b57d15a	0.003293118
108	0xb9bca69e	-0.00035982294
109	0xbc266eac	-0.010158222
110	0xbbdac987	-0.006676856
111	0x3ba678a7	0.005080301
112	0xbb9fdc94	-0.00487859
113	0xbbf0d4ff	-0.00734961
114	0x3aefcee0	0.0018295906
115	0x3c0dbf26	0.00865153
116	0xbbace6e1	-0.0052765463
117	0xbb9b0b85	-0.004731598
118	0xba425af2	-0.00074140646
119	0x3b87bf85	0.004142704
120	0x3b9c8360	0.0047764033
121	0x3c0708a2	0.008241804
122	0x3b03f293	0.00201336
123	0xbba4ce81	-0.0050295
124	0xbc00b593	-0.007855791
125	0x3b19501d	0.0023393699
126	0x3be20b5e	0.0068983277
127	0xbb8ce83e	-0.0043001464
128	0xbbb739a8	-0.00559159
129	0xbbbcc6dc	-0.0057610106
130	0xbb6c08e8	-0.003601605
131	0x3b397e4d	0.002830404
132	0xbc0dace2	-0.0086471755
133	0x3baba20e	0.0052378243
134	0xbb8e11ab	-0.0043356023
135	0xbb2c86a3	-0.0026325367
136	0x39acddbc	0.00032971601
137	0xba446cb5	-0.0007493005
138	0xbb3bbde6	-0.0028647124
139	0xba9b7f49	-0.0011863495
140	0xba963189	-0.0011458854
141	0x3bc2f7cb	0.0059499494
142	0xbba7b8dc	-0.0051184725
143	0x3b2d855c	0.0026477193
144	0x3b711881	0.0036788287
145	0x3b258cfd	0.0025261038
146	0xba3a46b5	-0.0007105873
147	0x3848fbff	4.7918405e-05
148	0x3b263667	0.0025362016
149	0xb91572fc	-0.00014252582
150	0x3b084786	0.0020794584
151	0xbbaaa8da	-0.005208117
152	0xba6df7c0	-0.000907775
153	0x3b7b84fe	0.003837883
154	0x3b1a98f9	0.0023589714
155	0x3b5ce62f	0.0033706536
156	0xbab72b9a	-0.0013974786
157	0x3a837fb2	0.0010032563
158	0xbb1e03cc	-0.002411115
159	0xba8d704a	-0.0010790911
160	0x3a202d26	0.0006110243
161	0x3be02d15	0.0068413117
162	0x390c26dd	0.00013365918
163	0xbb59a5ba	-0.0033210353
164	0xba6cfa42	-0.0009039977
165	0x3a0085ee	0.00049027696
166	0x3b7d1783	0.003861875
167	0x3b36b05a	0.002787611
168	0xbb74c7d2	-0.0037350547
169	0xbbe1314b	-0.0068723313
170	0xbb6603be	-0.0035097445
171	0xbbdf5839	-0.006815937
172	0xbbab5b8f	-0.0052294205
173	0xb9fab970	-0.00047821878
174	0x3b95e2c4	0.0045741517
175	0xba93b27d	-0.0011268404
176	0xbb0ddb58	-0.0021645632
177	0xbbc874e0	-0.006117448
178	0x38dda149	0.00010568143
179	0xbb2a5498	-0.0025990363
180	0x3bbabd73	0.0056988536
181	0x3b14cd0e	0.002270523
182	0x3b472852	0.0030389023
183	0x3bb1ce38	0.0054261945
184	0xbb11bb39	-0.0022236838
185	0xbb030601	-0.0019992592
186	0xbc05c21a	-0.008163953
187	0xbbb7d165	-0.0056096786
188	0xb987d5a7	-0.0002590839
189	0x3b860de6	0.0040910123
190	0x3860a847	5.3562482e-05
191	0x3abfbd09	0.001462848
192	0xbbcf1e23	-0.0063207312
193	0xbbb431a6	-0.0054990826
194	0xbb8f72f2	-0.004377716
195	0xbb91c9ba	-0.0044490965
196	0xb8f407cf	-0.00011636281
197	0x3b2eb0ac	0.0026655598
198	0xbbb42b25	-0.0054983073
199	0xbbaeb527	-0.0053316536
200	0x3b43b69b	0.002986348
201	0x3b209a1d	0.0024505921
202	0xb9c38b72	-0.00037297193
203	0xba9465d8	-0.0011321856
204	0xbb50f25a	-0.0031882734
205	0xbba0d095	-0.0049076774
206	0xbbdf8847	-0.0068216654
207	0x3bb23832	0.005438828
208	0xbb08f8e1	-0.0020900297
209	0xbba99396	-0.0051750643
210	0x3a01d5e0	0.00049528293
211	0xba85db0e	-0.0010212378
212	0xb9acab92	-0.00032934226
213	0xbb4282d9	-0.0029680042
214	0xbb708038	-0.0036697518
215	0x3aed42eb	0.0018101608
216	0xbbbb4458	-0.0057149343
217	0x37d41dae	2.528619e-05
218	0x3b965abe	0.004588454
219	0xbb390e90	-0.002823744
220	0xbb0a5282	-0.0021106307
221	0xbb527e49	-0.003211873
222	0xbb957ef9	-0.0045622555
223	0x3bd6723e	0.0065443804
224	0xbb808b47	-0.003922853
225	0xbb425820	-0.0029654577
226	0x3ad7f2ec	0.0016475595
227	0xbbca2da9	-0.006169994
228	0xbbbeaedc	-0.0058191847
229	0xbb41078f	-0.0029453968
230	0x3b64330e	0.003482047
231	0xbb29416c	-0.0025826348
232	0xbc09b7fd	-0.008405683
233	0xbb9e7928	-0.0048362203
234	0xbb9fd70f	-0.004877932
235	0x3b390f70	0.0028237961
236	0xbbcdad48	-0.0062767603
237	0xba8f0da6	-0.0010914102
238	0xbbce58cc	-0.0062972065
239	0xba80e9c4	-0.0009835293
240	0x3bf9146e	0.0076013124
241	0x3b778c6e	0.0037772912
242	0x3b11cd0c	0.0022247462
243	0xbbb2b5f6	-0.0054538203
244	0xbbfb409c	-0.007667614
245	0xbb24d147	-0.0025149153
246	0xbbe34222	-0.006935374
247	0xbaca77e4	-0.0015447107
248	0xb9390c15	-0.00017647476
249	0x3ab2049a	0.0013581694
250	0x39612b8e	0.00021473898
251	0xbb472bc3	-0.0030391074
252	0x3a6d6ac9	0.0009056745
253	0xbb6c2ead	-0.0036038563
254	0xbbfb07f4	-0.00766086
255	0xbb1cc4c1	-0.0023920985

std.constant14 f4 [384]
0	0x3bfb134f	0.007662214
1	0xbbc95775	-0.006144459
2	0x3a43c2d0	0.0007467689
3	0x3b048766	0.0020222305
4	0xbb3fe473	-0.0029280453
5	0xba9d2332	-0.0011988638
6	0x3a493f51	0.00076769764
7	0xbaa1820a	-0.001232208
8	0x3a8acd88	0.0010589818
9	0x3bee036f	0.007263593
10	0x39e2c963	0.00043256124
11	0x3a03121d	0.00049999525
12	0xbbda9875	-0.0066710063
13	0xbbb4c8c9	-0.0055170995
14	0x3b2b4262	0.0026132097
15	0xbbbde5b7	-0.0057952064
16	0x3c0b0df7	0.008487216
17	0x3bceb6b5	0.0063084015
18	0x3b0155cb	0.0019734974
19	0xbaa545b1	-0.0012609271
20	0x3c04a940	0.008096993
21	0xbb07ca3d	-0.0020719909
22	0x3b9d0869	0.0047922623
23	0x3a82bb91	0.0009974112
24	0xbbc572d9	-0.006025654
25	0x3b550192	0.0032502157
26	0xbb4d5753	-0.0031332567
27	0xbc0900a6	-0.008361971
28	0x3b31b715	0.0027117182
29	0x392d6d40	0.00016539264
30	0xbbfe3707	-0.0077580246
31	0x3ad65a67	0.0016353846
32	0xbb0a0964	-0.0021062726
33	0xbb684b62	-0.0035445322
34	0x3b9a4973	0.004708463
35	0xbb54792f	-0.0032420864
36	0xbb261616	-0.0025342754
37	0x3b3c5324	0.002873608
38	0x3a7f7a01	0.0009745658
39	0x3baa4bc0	0.0051970184
40	0xb9fb1b63	-0.00047894855
41	0xbb086cdc	-0.0020816838
42	0xbb950e18	-0.0045487992
43	0x3bd0e77b	0.006375251
44	0x3bd2b663	0.0064304336
45	0x3b281b36	0.0025650985
46	0x3b8c1b5b	0.004275722
47	0x3c07c866	0.008287525
48	0xbbffa8ef	-0.007802121
49	0xbb1d7e36	-0.0024031526
50	0x3b30f824	0.0027003372
51	0x3ac1f145	0.0014796635
52	0xbb1c2c98	-0.002383029
53	0x3a502ca2	0.0007941221
54	0x3c0033f6	0.007824888
55	0xbc079bdf	-0.008276909
56	0xbc343b14	-0.011000413
57	0xbab032d1	-0.0013442879
58	0x3bad709e	0.005292966
59	0x3aa99280	0.0012937337
60	0x3a8515f5	0.0010153638
61	0x3b88b233	0.0041716336
62	0xbbd2e4d0	-0.006435968
63	0x3b3f856f	0.002922382
64	0xba91def1	-0.0011129064
65	0x3b80410a	0.0039140033
66	0x3bcd876d	0.0062722475
67	0xbc06b8e6	-0.008222794
68	0xbc0ca0ae	-0.008583231
69	0xb953b387	-0.00020189407
70	0xbbfd8118	-0.0077363364
71	0x3b7262e2	0.0036985208
72	0xba06d457	-0.00051433354
73	0x3bb9d1f6	0.0056707812
74	0x3b20fe54	0.0024565654
75	0x3a0c5f9e	0.0005354824
76	0xbbe93ff3	-0.007118219
77	0xbad99c08	-0.0016602287
78	0x3ac5ebd8	0.0015100194
79	0x393dde61	0.00018107287
80	0xba2cb6df	-0.0006588529
81	0x3b2309c3	0.0024877645
82	0x3b577bb7	0.0032880136
83	0x3be9e8e8	0.0071383603
84	0x3bec6bea	0.007215013
85	0xbb821de9	-0.0039708507
86	0x3b07e295	0.0020734419
87	0xba5211b0	-0.00080135
88	0x3bf9a9c1	0.007619113
89	0x3a5c4d0b	0.0008403814
90	0x3b835dcb	0.0040089837
91	0x39345ee8	0.00017201493
92	0x3b94bdc5	0.004539224
93	0x3c03a185	0.008034115
94	0xbb9c5aef	-0.0047715823
95	0xbc0817d9	-0.008306467
96	0x3b93a5e2	0.0045058588
97	0x3b8f9144	0.0043813307
98	0xbbc455e4	-0.0059916843
99	0xb8055e14	-3.1797288e-05
100	0xbb9cd0b0	-0.0047856197
101	0x3bb8ed20	0.005643502
102	0xbb327c3f	-0.00272347
103	0xbb2c497f	-0.0026288924
104	0x3b5ce451	0.0033705423
105	0x3baacd1c	0.005212439
106	0xbbb0f708	-0.005400542
107	0x3b57d15a	0.003293118
108	0xb9bca69e	-0.00035982294
109	0xbc266eac	-0.010158222
110	0xbbdac987	-0.006676856
111	0x3ba678a7	0.005080301
112	0xbb9fdc94	-0.00487859
113	0xbbf0d4ff	-0.00734961
114	0x3aefcee0	0.0018295906
115	0x3c0dbf26	0.00865153
116	0xbbace6e1	-0.0052765463
117	0xbb9b0b85	-0.004731598
118	0xba425af2	-0.00074140646
119	0x3b87bf85	0.004142704
120	0x3b9c8360	0.0047764033
121	0x3c0708a2	0.008241804
122	0x3b03f293	0.00201336
123	0xbba4ce81	-0.0050295
124	0xbc00b593	-0.007855791
125	0x3b19501d	0.0023393699
126	0x3be20b5e	0.0068983277
127	0xbb8ce83e	-0.0043001464
128	0xbbb739a8	-0.00559159
129	0xbbbcc6dc	-0.0057610106
130	0xbb6c08e8	-0.003601605
131	0x3b397e4d	0.002830404
132	0xbc0dace2	-0.0086471755
133	0x3baba20e	0.0052378243
134	0xbb8e11ab	-0.0043356023
135	0xbb2c86a3	-0.0026325367
136	0x39acddbc	0.00032971601
137	0xba446cb5	-0.0007493005
138	0xbb3bbde6	-0.0028647124
139	0xba9b7f49	-0.0011863495
140	0xba963189	-0.0011458854
141	0x3bc2f7cb	0.0059499494
142	0xbba7b8dc	-0.0051184725
143	0x3b2d855c	0.0026477193
144	0x3b711881	0.0036788287
145	0x3b258cfd	0.0025261038
146	0xba3a46b5	-0.0007105873
147	0x3848fbff	4.7918405e-05
148	0x3b263667	0.0025362016
149	0xb91572fc	-0.00014252582
150	0x3b084786	0.0020794584
151	0xbbaaa8da	-0.005208117
152	0xba6df7c0	-0.000907775
153	0x3b7b84fe	0.003837883
154	0x3b1a98f9	0.0023589714
155	0x3b5ce62f	0.0033706536
156	0xbab72b9a	-0.0013974786
157	0x3a837fb2	0.0010032563
158	0xbb1e03cc	-0.002411115
159	0xba8d704a	-0.0010790911
160	0x3a202d26	0.0006110243
161	0x3be02d15	0.0068413117
162	0x390c26dd	0.00013365918
163	0xbb59a5ba	-0.0033210353
164	0xba6cfa42	-0.0009039977
165	0x3a0085ee	0.00049027696
166	0x3b7d1783	0.003861875
167	0x3b36b05a	0.002787611
168	0xbb74c7d2	-0.0037350547
169	0xbbe1314b	-0.0068723313
170	0xbb6603be	-0.0035097445
171	0xbbdf5839	-0.006815937
172	0xbbab5b8f	-0.0052294205
173	0xb9fab970	-0.00047821878
174	0x3b95e2c4	0.0045741517
175	0xba93b27d	-0.0011268404
176	0xbb0ddb58	-0.0021645632
177	0xbbc874e0	-0.006117448
178	0x38dda149	0.00010568143
179	0xbb2a5498	-0.0025990363
180	0x3bbabd73	0.0056988536
181	0x3b14cd0e	0.002270523
182	0x3b472852	0.0030389023
183	0x3bb1ce38	0.0054261945
184	0xbb11bb39	-0.0022236838
185	0xbb030601	-0.0019992592
186	0xbc05c21a	-0.008163953
187	0xbbb7d165	-0.0056096786
188	0xb987d5a7	-0.0002590839
189	0x3b860de6	0.0040910123
190	0x3860a847	5.3562482e-05
191	0x3abfbd09	0.001462848
192	0xbbcf1e23	-0.0063207312
193	0xbbb431a6	-0.0054990826
194	0xbb8f72f2	-0.004377716
195	0xbb91c9ba	-0.0044490965
196	0xb8f407cf	-0.00011636281
197	0x3b2eb0ac	0.0026655598
198	0xbbb42b25	-0.0054983073
199	0xbbaeb527	-0.0053316536
200	0x3b43b69b	0.002986348
201	0x3b209a1d	0.0024505921
202	0xb9c38b72	-0.00037297193
203	0xba9465d8	-0.0011321856
204	0xbb50f25a	-0.0031882734
205	0xbba0d095	-0.0049076774
206	0xbbdf8847	-0.0068216654
207	0x3bb23832	0.005438828
208	0xbb08f8e1	-0.0020900297
209	0xbba99396	-0.0051750643
210	0x3a01d5e0	0.00049528293
211	0xba85db0e	-0.0010212378
212	0xb9acab92	-0.00032934226
213	0xbb4282d9	-0.0029680042
214	0xbb708038	-0.0036697518
215	0x3aed42eb	0.0018101608
216	0xbbbb4458	-0.0057149343
217	0x37d41dae	2.528619e-05
218	0x3b965abe	0.004588454
219	0xbb390e90	-0.002823744
220	0xbb0a5282	-0.0021106307
221	0xbb527e49	-0.003211873
222	0xbb957ef9	-0.0045622555
223	0x3bd6723e	0.0065443804
224	0xbb808b47	-0.003922853
225	0xbb425820	-0.0029654577
226	0x3ad7f2ec	0.0016475595
227	0xbbca2da9	-0.006169994
228	0xbbbeaedc	-0.0058191847
229	0xbb41078f	-0.0029453968
230	0x3b64330e	0.003482047
231	0xbb29416c	-0.0025826348
232	0xbc09b7fd	-0.008405683
233	0xbb9e7928	-0.0048362203
234	0xbb9fd70f	-0.004877932
235	0x3b390f70	0.0028237961
236	0xbbcdad48	-0.0062767603
237	0xba8f0da6	-0.0010914102
238	0xbbce58cc	-0.0062972065
239	0xba80e9c4	-0.0009835293
240	0x3bf9146e	0.0076013124
241	0x3b778c6e	0.0037772912
242	0x3b11cd0c	0.0022247462
243	0xbbb2b5f6	-0.0054538203
244	0xbbfb409c	-0.007667614
245	0xbb24d147	-0.0025149153
246	0xbbe34222	-0.006935374
247	0xbaca77e4	-0.0015447107
248	0xb9390c15	-0.00017647476
249	0x3ab2049a	0.0013581694
250	0x39612b8e	0.00021473898
251	0xbb472bc3	-0.0030391074
252	0x3a6d6ac9	0.0009056745
253	0xbb6c2ead	-0.0036038563
254	0xbbfb07f4	-0.00766086
255	0xbb1cc4c1	-0.0023920985

std.constant15 f4 [1, 128]
0	0x3e450d8b	0.19243447
1	0xbd8dcc0a	-0.06923683
2	0x3e2b7962	0.16745523
3	0x3d959e36	0.07305567
4	0xbe05436e	-0.13014004
5	0xbd98937d	-0.07450006
6	0x3db9c23a	0.09070249
7	0xbd5951b9	-0.053056452
8	0xbe06c8da	-0.13162556
9	0xbdac8e29	-0.084255524
10	0x3e196280	0.14978981
11	0xbdd01318	-0.10159892
12	0x3dfcadd6	0.12337844
13	0xbe0d5039	-0.13800134
14	0x3df80d3d	0.121119
15	0x3d3326d6	0.04373821
16	0xbd8b45fd	-0.068004586
17	0x3c08f3a7	0.0083588725
18	0xbdb15abc	-0.08659884
19	0x3c811374	0.015756346
20	0x3e2a8c97	0.16655193
21	0xbc72e214	-0.014824409
22	0x3e0989e6	0.1343151
23	0x3daf31ad	0.08554397
24	0x3d4b44a9	0.049626026
25	0xbd7a7498	-0.06114635
26	0xbdc6a651	-0.09699691
27	0xbd641be9	-0.05569068
28	0x3e07c074	0.13257009
29	0x3d501161	0.050797824
30	0x3e0b847e	0.1362476
31	0xbe465e50	-0.19371915
32	0x3d15129f	0.03639471
33	0x3c992413	0.01869396
34	0xbd8f3277	-0.06992047
35	0xbdef9e8b	-0.117001615
36	0x3d1b13cb	0.037860673
37	0x3dd70f90	0.10501015
38	0xbc6d7d5d	-0.014495221
39	0x3dd19319	0.10233135
40	0xbd262779	-0.040564988
41	0x3d241dc4	0.04006745
42	0xbd83cf01	-0.06435967
43	0x3dc480e0	0.095948935
44	0xbe1c4f8b	-0.15264718
45	0xbceb126c	-0.028695308
46	0xbddc153f	-0.1074624
47	0xbe07d2ca	-0.13264003
48	0xbc4b8765	-0.012422417
49	0x3dff27f9	0.12458796
50	0x3e263ba7	0.16233693
51	0x3e1ed0db	0.1550936
52	0x3ddd814c	0.10815677
53	0xbe1cbc76	-0.15306267
54	0xbdd6844c	-0.104744524
55	0xbe3399eb	-0.17539184
56	0x3d88fa8a	0.066884115
57	0xbdc828f2	-0.09773435
58	0xbe1d7ce2	-0.1537967
59	0x3e403e9f	0.18773888
60	0x3d045476	0.03230711
61	0xbdc314bf	-0.095254414
62	0x3e3ffec7	0.18749534
63	0xbda6c851	-0.08143676
64	0xbd339d23	-0.04385103
65	0x3d8220a9	0.06353886
66	0x3cb8a5c4	0.02253998
67	0xbe122b5e	-0.14274356
68	0x3cf04521	0.029329838
69	0x3d81bd25	0.063349046
70	0x3cd86bd3	0.026418602
71	0xbe31d97e	-0.17368123
72	0xbdba21a4	-0.09088448
73	0x3dcaa4a6	0.098946854
74	0xbd9933ae	-0.0748056
75	0x3db6d6eb	0.08927711
76	0x3db4b06a	0.08822711
77	0xbd65f5de	-0.05614268
78	0x3e4a278f	0.19741653
79	0x3d25e355	0.040500004
80	0xbc95c56d	-0.018282617
81	0xbdcb3d03	-0.099237464
82	0xbcb17700	-0.021663189
83	0xbdeb50f3	-0.11490049
84	0xbdc5f548	-0.09665924
85	0x3dce1ece	0.10064469
86	0xbd724340	-0.059146166
87	0xbda86401	-0.08222199
88	0xbe10f0f5	-0.14154418
89	0xbd737ee5	-0.059447188
90	0xbd04bcef	-0.032406744
91	0x3d987770	0.07444656
92	0x3e00a4c7	0.12562858
93	0xbc34254a	-0.0109952185
94	0x3d799295	0.060930807
95	0x3ca0a447	0.019609584
96	0xbd947323	-0.07248523
97	0x3e39d7a0	0.1814866
98	0xbd970b62	-0.07375218
99	0x3e2936e5	0.16524847
100	0xbde203e2	-0.11035897
101	0xbcd29e2b	-0.025710186
102	0x3e22817a	0.15869704
103	0x3c323b7f	0.010878443
104	0xbdccbf60	-0.099974394
105	0xbe2c682f	-0.16836618
106	0xbdcc33bc	-0.09970805
107	0xbde36e42	-0.111050144
108	0x3e402052	0.18762329
109	0x3dd5874b	0.10426196
110	0x3dd683f9	0.104743905
111	0x3dbe8352	0.09302391
112	0xbe38d097	-0.1804832
113	0xbbcc2bff	-0.0062308307
114	0x3e186c52	0.14885071
115	0xbde41a47	-0.111378245
116	0xbe332fc8	-0.17498696
117	0xbe25bda7	-0.16185628
118	0x3d8974c9	0.06711728
119	0xbe086940	-0.133214
120	0xbca11010	-0.01966098
121	0x3dfd38be	0.12364338
122	0xbe16473f	-0.14675616
123	0x3e029620	0.1275258
124	0x3cc7c3c5	0.024385342
125	0xbe512009	-0.20422377
126	0xbe31672e	-0.17324516
127	0xbdb633e4	-0.08896616

std.constant16 f4 [32]
0	0x00000000	0.0
1	0x00000000	0.0
2	0x00000000	0.0
3	0x00000000	0.0
4	0x00000000	0.0
5	0x00000000	0.0
6	0x00000000	0.0
7	0x00000000	0.0
8	0x00000000	0.0
9	0x00000000	0.0
10	0x00000000	0.0
11	0x00000000	0.0
12	0x00000000	0.0
13	0x00000000	0.0
14	0x00000000	0.0
15	0x00000000	0.0
16	0x00000000	0.0
17	0x00000000	0.0
18	0x00000000	0.0
19	0x00000000	0.0
20	0x00000000	0.0
21	0x00000000	0.0
22	0x00000000	0.0
23	0x00000000	0.0
24	0x00000000	0.0
25	0x00000000	0.0
26	0x00000000	0.0
27	0x00000000	0.0
28	0x00000000	0.0
29	0x00000000	0.0
30	0x00000000	0.0
31	0x00000000	0.0

std.constant17 f4 [32, 1, 15, 101]
0	0x3d270a5b	0.04078136
1	0xbd29373a	-0.041312434
2	0x3ce6012c	0.02807673
3	0xbae83988	-0.0017717341
4	0xbbfaacf5	-0.0076500126
5	0xbb35d00a	-0.002774241
6	0x3d2cff2b	0.042235535
7	0x3d031aaf	0.03200787
8	0x3cccab20	0.024983943
9	0xbd0f3233	-0.034959983
10	0xbd1c569a	-0.038168527
11	0xbca88110	-0.020569354
12	0xbd2fab7f	-0.04288816
13	0x3cba46cb	0.022738835
14	0xbd39f579	-0.045400117
15	0xbd4df983	-0.05028678
16	0xbd619be5	-0.055080313
17	0x3d34e19d	0.044160474
18	0xbcfb87b4	-0.030704357
19	0x3cdc30ed	0.026878798
20	0x3d2c1ccf	0.04201966
21	0xbcd4001b	-0.025878957
22	0x3d4e74c8	0.05040434
23	0xbcdda9be	-0.027058478
24	0xbd1d34f6	-0.038380586
25	0xbc8cd1d1	-0.017189892
26	0xbc939f61	-0.018020334
27	0x3c480226	0.0122075435
28	0xbd544d41	-0.051831488
29	0x3d57efee	0.05271905
30	0x3c70660f	0.01467277
31	0xbc5aef9b	-0.01336279
32	0x3cc6bcdc	0.024259977
33	0xbd09c1f1	-0.033632223
34	0x3d59135f	0.05299699
35	0xbcb1d298	-0.021706864
36	0xbc342048	-0.010994025
37	0xbce43f92	-0.027862344
38	0xbd49009c	-0.049072847
39	0xbc95e2b6	-0.01829658
40	0x3c8b5dc7	0.01701249
41	0x3b671cab	0.003526489
42	0xbc334cac	-0.010943573
43	0x3b9f90ad	0.0048695416
44	0x3d22a5b0	0.039708793
45	0xbd1896b5	-0.0372531
46	0x3d31d66b	0.043417376
47	0xbd4f6f18	-0.050643057
48	0x3c783011	0.015148179
49	0x3d464bef	0.04841226
50	0x3ca6fc60	0.020384014
51	0x389fdd46	7.622926e-05
52	0xbd30f000	-0.04319763
53	0xbc5260e0	-0.01284048
54	0xbd1bcd6d	-0.038037706
55	0xbd074367	-0.033023264
56	0xbd253a1a	-0.040338613
57	0xbb8e0bc8	-0.0043349005
58	0x3cd7735e	0.026300129
59	0x3bebfbcb	0.007201647
60	0xbcc263fd	-0.023729319
61	0xbced7163	-0.028984731
62	0xbd5b1de3	-0.0534953
63	0xba389446	-0.00070411374
64	0x3ca264d8	0.019823477
65	0xbc07d7c0	-0.008291185
66	0x3aef8830	0.001827484
67	0x3b389b5d	0.0028168776
68	0xbc90313e	-0.017601606
69	0xbc3f2f70	-0.011669025
70	0x3b5352d0	0.0032245405
71	0x3d3d5b06	0.046229385
72	0x3d5289af	0.051400837
73	0x3d213679	0.03935859
74	0x3c2eb367	0.01066289
75	0x3abe8483	0.0014535341
76	0xbca0a7e7	-0.019611312
77	0xbd390c9f	-0.045178052
78	0xbd2b9e71	-0.04189915
79	0xbd476d9a	-0.04868851
80	0xbc805444	-0.015665181
81	0x3d51a72c	0.05118482
82	0xbc25c23d	-0.010117111
83	0xbce13a57	-0.027493639
84	0x3b497754	0.003074129
85	0xbcb3f0a4	-0.021965332
86	0xbb1e7d57	-0.0024183595
87	0x3d23d4ed	0.039997984
88	0x3cdae2e7	0.026719524
89	0xbd2ceebc	-0.042219862
90	0xbd39c452	-0.04535324
91	0xba96028d	-0.0011444852
92	0xbca8adf1	-0.020590754
93	0x3baf908d	0.005357808
94	0xbd6005e1	-0.054693107
95	0xbc4959d7	-0.012289486
96	0xbbd52607	-0.0065047774
97	0xbc24005e	-0.010009853
98	0x3a87be86	0.0010356463
99	0xbd4e426a	-0.050356306
100	0x3cdf12ab	0.027230581
101	0xbd1bb8c8	-0.038018018
102	0x3c9f06e9	0.019412475
103	0x3cb745d9	0.022372173
104	0xbc4d58b5	-0.012533356
105	0x3d59d892	0.053185053
106	0xbd169419	-0.03676233
107	0xbd58dae1	-0.052943114
108	0x3d12e7c2	0.035865553
109	0xbd13b231	-0.03605861
110	0xbd0a8493	-0.03381784
111	0x3b4e7309	0.0031501672
112	0xbb944054	-0.00452427
113	0xbd210b9b	-0.03931771
114	0xbc4436f8	-0.011975996
115	0x3d55d952	0.052209206
116	0xbd42267a	-0.047399975
117	0x3c09c17f	0.0084079495
118	0x3b22fc87	0.0024869756
119	0xbcfa2b51	-0.030538233
120	0x3cdb0f8a	0.026740808
121	0x3d5c0cd0	0.053723156
122	0x3cfb10d9	0.030647682
123	0xbd0bbb51	-0.034114186
124	0xbcd94953	-0.026524222
125	0xbd4cc891	-0.049995963
126	0xbd16d008	-0.036819488
127	0xbcb0c1a4	-0.02157671
128	0x38098320	3.2785465e-05
129	0xbd24f862	-0.04027594
130	0xbb543069	-0.0032377488
131	0xbd5a4dcc	-0.05329685
132	0x3bb8cbb9	0.00563952
133	0x3c739575	0.014867176
134	0xbb5f104d	-0.0034036816
135	0xbc167fe6	-0.009185767
136	0x3cc8bb1e	0.024503287
137	0x3d1f8175	0.03894182
138	0xbc3e8bf8	-0.011630051
139	0xbd1a6585	-0.037694473
140	0x3d278d42	0.0409062
141	0x3b70cbbd	0.0036742531
142	0x3d5f4bff	0.054515835
143	0xbc9b1e90	-0.018935472
144	0x39556db8	0.00020354136
145	0x3cdba002	0.026809696
146	0xbd35fa37	-0.044428077
147	0x3d3dc584	0.046330944
148	0xbcfd9878	-0.030956492
149	0x3d413664	0.04717101
150	0x3d38e798	0.04514274
151	0x3be56a56	0.0070012016
152	0xbd4bd913	-0.049767565
153	0xbd0038f2	-0.031304307
154	0x3cddb247	0.027062548
155	0xbbd195e6	-0.006396043
156	0xbd42e480	-0.047581196
157	0xbce2608c	-0.027633928
158	0x3d48328a	0.048876323
159	0xbce58a47	-0.028020037
160	0xbcd24e5d	-0.025672132
161	0x3d28078d	0.041022826
162	0x3cc0ceb9	0.023536073
163	0x3ca102af	0.0196546
164	0xbd417a4a	-0.047235765
165	0x3d17bfe4	0.037048236
166	0xbcc339d7	-0.023831291
167	0x3cc014c9	0.023447411
168	0x3cbe296d	0.023213113
169	0x3d005337	0.03132936
170	0xbd4d65f0	-0.050146043
171	0x3b430d06	0.0029762401
172	0x3d57e68b	0.052710097
173	0xbc5ee0f0	-0.013603434
174	0xbc86f04a	-0.016472
175	0x3c4d4b7a	0.012530202
176	0x3c21f9f9	0.009886258
177	0x3c922e6e	0.017844405
178	0x3cdaab10	0.026692897
179	0xbc910e9e	-0.017707165
180	0xbd54bf55	-0.05194028
181	0xbd10159d	-0.035176862
182	0x3c77cec5	0.015124981
183	0xbd44e5d7	-0.048070755
184	0x3b149d71	0.002267685
185	0x391dc6b6	0.00015046712
186	0xb9c6d40b	-0.00037923487
187	0xbd4826c3	-0.04886509
188	0x3cc9cb2b	0.02463301
189	0x3c1c7064	0.00954828
190	0xbc2d8ecf	-0.01059313
191	0xbd53ac7a	-0.05167816
192	0x3d56b52d	0.052418876
193	0x3c782fbc	0.0151480995
194	0x3cf4625f	0.029832063
195	0x3d534bf5	0.05158611
196	0xbab8fccf	-0.0014113429
197	0x3ba677d7	0.005080204
198	0xbd332a12	-0.043741293
199	0x3c9827fa	0.01857375
200	0xbd4a3949	-0.049371038
201	0xbc7b6eb5	-0.015346219
202	0x3d013701	0.031546596
203	0xbcaa7d71	-0.020811768
204	0x3abd9af6	0.0014465738
205	0x3cf36c89	0.02971484
206	0xbd4e0404	-0.0502968
207	0xbd0a4456	-0.033756576
208	0x3a486c8d	0.000764557
209	0x3c150dac	0.009097498
210	0xbd54201f	-0.051788446
211	0x3cacd1d0	0.02109614
212	0xbcabf8c9	-0.020992653
213	0x3d44a773	0.048011255
214	0xbd1c8416	-0.038211904
215	0x3d1ebe89	0.038755927
216	0x3c2856d0	0.010274604
217	0xbd23ce90	-0.039991915
218	0xbc5ec5d8	-0.013596974
219	0xbd414251	-0.047182385
220	0xbc2b10bc	-0.0104410015
221	0x3c8342a2	0.016022984
222	0xbcbe72d2	-0.02324811
223	0xbcca1bdd	-0.02467149
224	0x3c833055	0.016014257
225	0xbd279fce	-0.040923886
226	0x3d17757a	0.03697727
227	0x3bdef20b	0.006803756
228	0x3d0f73e6	0.03502264
229	0xbd00e027	-0.03146377
230	0x3bcea87f	0.0063067074
231	0xbc2831e7	-0.010265804
232	0xbd23f69d	-0.04003011
233	0xbca4e8f6	-0.020130616
234	0xbcc139fb	-0.023587218
235	0xbd0498d0	-0.032372296
236	0x3cebdacc	0.028790854
237	0xbd199fde	-0.037505977
238	0x3cc53590	0.024073392
239	0x3c7471e5	0.014919733
240	0x3cae3272	0.021264289
241	0x3d0f0fbd	0.03492712
242	0x3cc6cde2	0.024268094
243	0x3cef6f25	0.029227803
244	0xbd5193f4	-0.05116649
245	0x3d334db1	0.043775264
246	0xbc8c5d95	-0.017134467
247	0xbd441cb4	-0.047878936
248	0x3d507a99	0.05089817
249	0xbcefacda	-0.029257227
250	0x3cb65497	0.022257132
251	0x3d54dc1b	0.05196772
252	0xbcc6749e	-0.02422553
253	0x3c0ef473	0.008725273
254	0xbd20b65e	-0.03923642
255	0xbc9bfefb	-0.019042483

std.constant23 f4 [384]
0	0x3bfb134f	0.007662214
1	0xbbc95775	-0.006144459
2	0x3a43c2d0	0.0007467689
3	0x3b048766	0.0020222305
4	0xbb3fe473	-0.0029280453
5	0xba9d2332	-0.0011988638
6	0x3a493f51	0.00076769764
7	0xbaa1820a	-0.001232208
8	0x3a8acd88	0.0010589818
9	0x3bee036f	0.007263593
10	0x39e2c963	0.00043256124
11	0x3a03121d	0.00049999525
12	0xbbda9875	-0.0066710063
13	0xbbb4c8c9	-0.0055170995
14	0x3b2b4262	0.0026132097
15	0xbbbde5b7	-0.0057952064
16	0x3c0b0df7	0.008487216
17	0x3bceb6b5	0.0063084015
18	0x3b0155cb	0.0019734974
19	0xbaa545b1	-0.0012609271
20	0x3c04a940	0.008096993
21	0xbb07ca3d	-0.0020719909
22	0x3b9d0869	0.0047922623
23	0x3a82bb91	0.0009974112
24	0xbbc572d9	-0.006025654
25	0x3b550192	0.0032502157
26	0xbb4d5753	-0.0031332567
27	0xbc0900a6	-0.008361971
28	0x3b31b715	0.0027117182
29	0x392d6d40	0.00016539264
30	0xbbfe3707	-0.0077580246
31	0x3ad65a67	0.0016353846
32	0xbb0a0964	-0.0021062726
33	0xbb684b62	-0.0035445322
34	0x3b9a4973	0.004708463
35	0xbb54792f	-0.0032420864
36	0xbb261616	-0.0025342754
37	0x3b3c5324	0.002873608
38	0x3a7f7a01	0.0009745658
39	0x3baa4bc0	0.0051970184
40	0xb9fb1b63	-0.00047894855
41	0xbb086cdc	-0.0020816838
42	0xbb950e18	-0.0045487992
43	0x3bd0e77b	0.006375251
44	0x3bd2b663	0.0064304336
45	0x3b281b36	0.0025650985
46	0x3b8c1b5b	0.004275722
47	0x3c07c866	0.008287525
48	0xbbffa8ef	-0.007802121
49	0xbb1d7e36	-0.0024031526
50	0x3b30f824	0.0027003372
51	0x3ac1f145	0.0014796635
52	0xbb1c2c98	-0.002383029
53	0x3a502ca2	0.0007941221
54	0x3c0033f6	0.007824888
55	0xbc079bdf	-0.008276909
56	0xbc343b14	-0.011000413
57	0xbab032d1	-0.0013442879
58	0x3bad709e	0.005292966
59	0x3aa99280	0.0012937337
60	0x3a8515f5	0.0010153638
61	0x3b88b233	0.0041716336
62	0xbbd2e4d0	-0.006435968
63	0x3b3f856f	0.002922382
64	0xba91def1	-0.0011129064
65	0x3b80410a	0.0039140033
66	0x3bcd876d	0.0062722475
67	0xbc06b8e6	-0.008222794
68	0xbc0ca0ae	-0.008583231
69	0xb953b387	-0.00020189407
70	0xbbfd8118	-0.0077363364
71	0x3b7262e2	0.0036985208
72	0xba06d457	-0.00051433354
73	0x3bb9d1f6	0.0056707812
74	0x3b20fe54	0.0024565654
75	0x3a0c5f9e	0.0005354824
76	0xbbe93ff3	-0.007118219
77	0xbad99c08	-0.0016602287
78	0x3ac5ebd8	0.0015100194
79	0x393dde61	0.00018107287
80	0xba2cb6df	-0.0006588529
81	0x3b2309c3	0.0024877645
82	0x3b577bb7	0.0032880136
83	0x3be9e8e8	0.0071383603
84	0x3bec6bea	0.007215013
85	0xbb821de9	-0.0039708507
86	0x3b07e295	0.0020734419
87	0xba5211b0	-0.00080135
88	0x3bf9a9c1	0.007619113
89	0x3a5c4d0b	0.0008403814
90	0x3b835dcb	0.0040089837
91	0x39345ee8	0.00017201493
92	0x3b94bdc5	0.004539224
93	0x3c03a185	0.008034115
94	0xbb9c5aef	-0.0047715823
95	0xbc0817d9	-0.008306467
96	0x3b93a5e2	0.0045058588
97	0x3b8f9144	0.0043813307
98	0xbbc455e4	-0.0059916843
99	0xb8055e14	-3.1797288e-05
100	0xbb9cd0b0	-0.0047856197
101	0x3bb8ed20	0.005643502
102	0xbb327c3f	-0.00272347
103	0xbb2c497f	-0.0026288924
104	0x3b5ce451	0.0033705423
105	0x3baacd1c	0.005212439
106	0xbbb0f708	-0.005400542
107	0x3b57d15a	0.003293118
108	0xb9bca69e	-0.00035982294
109	0xbc266eac	-0.010158222
110	0xbbdac987	-0.006676856
111	0x3ba678a7	0.005080301
112	0xbb9fdc94	-0.00487859
113	0xbbf0d4ff	-0.00734961
114	0x3aefcee0	0.0018295906
115	0x3c0dbf26	0.00865153
116	0xbbace6e1	-0.0052765463
117	0xbb9b0b85	-0.004731598
118	0xba425af2	-0.00074140646
119	0x3b87bf85	0.004142704
120	0x3b9c8360	0.0047764033
121	0x3c0708a2	0.008241804
122	0x3b03f293	0.00201336
123	0xbba4ce81	-0.0050295
124	0xbc00b593	-0.007855791
125	0x3b19501d	0.0023393699
126	0x3be20b5e	0.0068983277
127	0xbb8ce83e	-0.0043001464
128	0xbbb739a8	-0.00559159
129	0xbbbcc6dc	-0.0057610106
130	0xbb6c08e8	-0.003601605
131	0x3b397e4d	0.002830404
132	0xbc0dace2	-0.0086471755
133	0x3baba20e	0.0052378243
134	0xbb8e11ab	-0.0043356023
135	0xbb2c86a3	-0.0026325367
136	0x39acddbc	0.00032971601
137	0xba446cb5	-0.0007493005
138	0xbb3bbde6	-0.0028647124
139	0xba9b7f49	-0.0011863495
140	0xba963189	-0.0011458854
141	0x3bc2f7cb	0.0059499494
142	0xbba7b8dc	-0.0051184725
143	0x3b2d855c	0.0026477193
144	0x3b711881	0.0036788287
145	0x3b258cfd	0.0025261038
146	0xba3a46b5	-0.0007105873
147	0x3848fbff	4.7918405e-05
148	0x3b263667	0.0025362016
149	0xb91572fc	-0.00014252582
150	0x3b084786	0.0020794584
151	0xbbaaa8da	-0.005208117
152	0xba6df7c0	-0.000907775
153	0x3b7b84fe	0.003837883
154	0x3b1a98f9	0.0023589714
155	0x3b5ce62f	0.0033706536
156	0xbab72b9a	-0.0013974786
157	0x3a837fb2	0.0010032563
158	0xbb1e03cc	-0.002411115
159	0xba8d704a	-0.0010790911
160	0x3a202d26	0.0006110243
161	0x3be02d15	0.0068413117
162	0x390c26dd	0.00013365918
163	0xbb59a5ba	-0.0033210353
164	0xba6cfa42	-0.0009039977
165	0x3a0085ee	0.00049027696
166	0x3b7d1783	0.003861875
167	0x3b36b05a	0.002787611
168	0xbb74c7d2	-0.0037350547
169	0xbbe1314b	-0.0068723313
170	0xbb6603be	-0.0035097445
171	0xbbdf5839	-0.006815937
172	0xbbab5b8f	-0.0052294205
173	0xb9fab970	-0.00047821878
174	0x3b95e2c4	0.0045741517
175	0xba93b27d	-0.0011268404
176	0xbb0ddb58	-0.0021645632
177	0xbbc874e0	-0.006117448
178	0x38dda149	0.00010568143
179	0xbb2a5498	-0.0025990363
180	0x3bbabd73	0.0056988536
181	0x3b14cd0e	0.002270523
182	0x3b472852	0.0030389023
183	0x3bb1ce38	0.0054261945
184	0xbb11bb39	-0.0022236838
185	0xbb030601	-0.0019992592
186	0xbc05c21a	-0.008163953
187	0xbbb7d165	-0.0056096786
188	0xb987d5a7	-0.0002590839
189	0x3b860de6	0.0040910123
190	0x3860a847	5.3562482e-05
191	0x3abfbd09	0.001462848
192	0xbbcf1e23	-0.0063207312
193	0xbbb431a6	-0.0054990826
194	0xbb8f72f2	-0.004377716
195	0xbb91c9ba	-0.0044490965
196	0xb8f407cf	-0.00011636281
197	0x3b2eb0ac	0.0026655598
198	0xbbb42b25	-0.0054983073
199	0xbbaeb527	-0.0053316536
200	0x3b43b69b	0.002986348
201	0x3b209a1d	0.0024505921
202	0xb9c38b72	-0.00037297193
203	0xba9465d8	-0.0011321856
204	0xbb50f25a	-0.0031882734
205	0xbba0d095	-0.0049076774
206	0xbbdf8847	-0.0068216654
207	0x3bb23832	0.005438828
208	0xbb08f8e1	-0.0020900297
209	0xbba99396	-0.0051750643
210	0x3a01d5e0	0.00049528293
211	0xba85db0e	-0.0010212378
212	0xb9acab92	-0.00032934226
213	0xbb4282d9	-0.0029680042
214	0xbb708038	-0.0036697518
215	0x3aed42eb	0.0018101608
216	0xbbbb4458	-0.0057149343
217	0x37d41dae	2.528619e-05
218	0x3b965abe	0.004588454
219	0xbb390e90	-0.002823744
220	0xbb0a5282	-0.0021106307
221	0xbb527e49	-0.003211873
222	0xbb957ef9	-0.0045622555
223	0x3bd6723e	0.0065443804
224	0xbb808b47	-0.003922853
225	0xbb425820	-0.0029654577
226	0x3ad7f2ec	0.0016475595
227	0xbbca2da9	-0.006169994
228	0xbbbeaedc	-0.0058191847
229	0xbb41078f	-0.0029453968
230	0x3b64330e	0.003482047
231	0xbb29416c	-0.0025826348
232	0xbc09b7fd	-0.008405683
233	0xbb9e7928	-0.0048362203
234	0xbb9fd70f	-0.004877932
235	0x3b390f70	0.0028237961
236	0xbbcdad48	-0.0062767603
237	0xba8f0da6	-0.0010914102
238	0xbbce58cc	-0.0062972065
239	0xba80e9c4	-0.0009835293
240	0x3bf9146e	0.0076013124
241	0x3b778c6e	0.0037772912
242	0x3b11cd0c	0.0022247462
243	0xbbb2b5f6	-0.0054538203
244	0xbbfb409c	-0.007667614
245	0xbb24d147	-0.0025149153
246	0xbbe34222	-0.006935374
247	0xbaca77e4	-0.0015447107
248	0xb9390c15	-0.00017647476
249	0x3ab2049a	0.0013581694
250	0x39612b8e	0.00021473898
251	0xbb472bc3	-0.0030391074
252	0x3a6d6ac9	0.0009056745
253	0xbb6c2ead	-0.0036038563
254	0xbbfb07f4	-0.00766086
255	0xbb1cc4c1	-0.0023920985

std.constant24 f4 [384]
0	0x3bfb134f	0.007662214
1	0xbbc95775	-0.006144459
2	0x3a43c2d0	0.0007467689
3	0x3b048766	0.0020222305
4	0xbb3fe473	-0.0029280453
5	0xba9d2332	-0.0011988638
6	0x3a493f51	0.00076769764
7	0xbaa1820a	-0.001232208
8	0x3a8acd88	0.0010589818
9	0x3bee036f	0.007263593
10	0x39e2c963	0.00043256124
11	0x3a03121d	0.00049999525
12	0xbbda9875	-0.0066710063
13	0xbbb4c8c9	-0.0055170995
14	0x3b2b4262	0.0026132097
15	0xbbbde5b7	-0.0057952064
16	0x3c0b0df7	0.008487216
17	0x3bceb6b5	0.0063084015
18	0x3b0155cb	0.0019734974
19	0xbaa545b1	-0.0012609271
20	0x3c04a940	0.008096993
21	0xbb07ca3d	-0.0020719909
22	0x3b9d0869	0.0047922623
23	0x3a82bb91	0.0009974112
24	0xbbc572d9	-0.006025654
25	0x3b550192	0.0032502157
26	0xbb4d5753	-0.0031332567
27	0xbc0900a6	-0.008361971
28	0x3b31b715	0.0027117182
29	0x392d6d40	0.00016539264
30	0xbbfe3707	-0.0077580246
31	0x3ad65a67	0.0016353846
32	0xbb0a0964	-0.0021062726
33	0xbb684b62	-0.0035445322
34	0x3b9a4973	0.004708463
35	0xbb54792f	-0.0032420864
36	0xbb261616	-0.0025342754
37	0x3b3c5324	0.002873608
38	0x3a7f7a01	0.0009745658
39	0x3baa4bc0	0.0051970184
40	0xb9fb1b63	-0.00047894855
41	0xbb086cdc	-0.0020816838
42	0xbb950e18	-0.0045487992
43	0x3bd0e77b	0.006375251
44	0x3bd2b663	0.0064304336
45	0x3b281b36	0.0025650985
46	0x3b8c1b5b	0.004275722
47	0x3c07c866	0.008287525
48	0xbbffa8ef	-0.007802121
49	0xbb1d7e36	-0.0024031526
50	0x3b30f824	0.0027003372
51	0x3ac1f145	0.0014796635
52	0xbb1c2c98	-0.002383029
53	0x3a502ca2	0.0007941221
54	0x3c0033f6	0.007824888
55	0xbc079bdf	-0.008276909
56	0xbc343b14	-0.011000413
57	0xbab032d1	-0.0013442879
58	0x3bad709e	0.005292966
59	0x3aa99280	0.0012937337
60	0x3a8515f5	0.0010153638
61	0x3b88b233	0.0041716336
62	0xbbd2e4d0	-0.006435968
63	0x3b3f856f	0.002922382
64	0xba91def1	-0.0011129064
65	0x3b80410a	0.0039140033
66	0x3bcd876d	0.0062722475
67	0xbc06b8e6	-0.008222794
68	0xbc0ca0ae	-0.008583231
69	0xb953b387	-0.00020189407
70	0xbbfd8118	-0.0077363364
71	0x3b7262e2	0.0036985208
72	0xba06d457	-0.00051433354
73	0x3bb9d1f6	0.0056707812
74	0x3b20fe54	0.0024565654
75	0x3a0c5f9e	0.0005354824
76	0xbbe93ff3	-0.007118219
77	0xbad99c08	-0.0016602287
78	0x3ac5ebd8	0.0015100194
79	0x393dde61	0.00018107287
80	0xba2cb6df	-0.0006588529
81	0x3b2309c3	0.0024877645
82	0x3b577bb7	0.0032880136
83	0x3be9e8e8	0.0071383603
84	0x3bec6bea	0.007215013
85	0xbb821de9	-0.0039708507
86	0x3b07e295	0.0020734419
87	0xba5211b0	-0.00080135
88	0x3bf9a9c1	0.007619113
89	0x3a5c4d0b	0.0008403814
90	0x3b835dcb	0.0040089837
91	0x39345ee8	0.00017201493
92	0x3b94bdc5	0.004539224
93	0x3c03a185	0.008034115
94	0xbb9c5aef	-0.0047715823
95	0xbc0817d9	-0.008306467
96	0x3b93a5e2	0.0045058588
97	0x3b8f9144	0.0043813307
98	0xbbc455e4	-0.0059916843
99	0xb8055e14	-3.1797288e-05
100	0xbb9cd0b0	-0.0047856197
101	0x3bb8ed20	0.005643502
102	0xbb327c3f	-0.00272347
103	0xbb2c497f	-0.0026288924
104	0x3b5ce451	0.0033705423
105	0x3baacd1c	0.005212439
106	0xbbb0f708	-0.005400542
107	0x3b57d15a	0.003293118
108	0xb9bca69e	-0.00035982294
109	0xbc266eac	-0.010158222
110	0xbbdac987	-0.006676856
111	0x3ba678a7	0.005080301
112	0xbb9fdc94	-0.00487859
113	0xbbf0d4ff	-0.00734961
114	0x3aefcee0	0.0018295906
115	0x3c0dbf26	0.00865153
116	0xbbace6e1	-0.0052765463
117	0xbb9b0b85	-0.004731598
118	0xba425af2	-0.00074140646
119	0x3b87bf85	0.004142704
120	0x3b9c8360	0.0047764033
121	0x3c0708a2	0.008241804
122	0x3b03f293	0.00201336
123	0xbba4ce81	-0.0050295
124	0xbc00b593	-0.007855791
125	0x3b19501d	0.0023393699
126	0x3be20b5e	0.0068983277
127	0xbb8ce83e	-0.0043001464
128	0xbbb739a8	-0.00559159
129	0xbbbcc6dc	-0.0057610106
130	0xbb6c08e8	-0.003601605
131	0x3b397e4d	0.002830404
132	0xbc0dace2	-0.0086471755
133	0x3baba20e	0.0052378243
134	0xbb8e11ab	-0.0043356023
135	0xbb2c86a3	-0.0026325367
136	0x39acddbc	0.00032971601
137	0xba446cb5	-0.0007493005
138	0xbb3bbde6	-0.0028647124
139	0xba9b7f49	-0.0011863495
140	0xba963189	-0.0011458854
141	0x3bc2f7cb	0.0059499494
142	0xbba7b8dc	-0.0051184725
143	0x3b2d855c	0.0026477193
144	0x3b711881	0.0036788287
145	0x3b258cfd	0.0025261038
146	0xba3a46b5	-0.0007105873
147	0x3848fbff	4.7918405e-05
148	0x3b263667	0.0025362016
149	0xb91572fc	-0.00014252582
150	0x3b084786	0.0020794584
151	0xbbaaa8da	-0.005208117
152	0xba6df7c0	-0.000907775
153	0x3b7b84fe	0.003837883
154	0x3b1a98f9	0.0023589714
155	0x3b5ce62f	0.0033706536
156	0xbab72b9a	-0.0013974786
157	0x3a837fb2	0.0010032563
158	0xbb1e03cc	-0.002411115
159	0xba8d704a	-0.0010790911
160	0x3a202d26	0.0006110243
161	0x3be02d15	0.0068413117
162	0x390c26dd	0.00013365918
163	0xbb59a5ba	-0.0033210353
164	0xba6cfa42	-0.0009039977
165	0x3a0085ee	0.00049027696
166	0x3b7d1783	0.003861875
167	0x3b36b05a	0.002787611
168	0xbb74c7d2	-0.0037350547
169	0xbbe1314b	-0.0068723313
170	0xbb6603be	-0.0035097445
171	0xbbdf5839	-0.006815937
172	0xbbab5b8f	-0.0052294205
173	0xb9fab970	-0.00047821878
174	0x3b95e2c4	0.0045741517
175	0xba93b27d	-0.0011268404
176	0xbb0ddb58	-0.0021645632
177	0xbbc874e0	-0.006117448
178	0x38dda149	0.00010568143
179	0xbb2a5498	-0.0025990363
180	0x3bbabd73	0.0056988536
181	0x3b14cd0e	0.002270523
182	0x3b472852	0.0030389023
183	0x3bb1ce38	0.0054261945
184	0xbb11bb39	-0.0022236838
185	0xbb030601	-0.0019992592
186	0xbc05c21a	-0.008163953
187	0xbbb7d165	-0.0056096786
188	0xb987d5a7	-0.0002590839
189	0x3b860de6	0.0040910123
190	0x3860a847	5.3562482e-05
191	0x3abfbd09	0.001462848
192	0xbbcf1e23	-0.0063207312
193	0xbbb431a6	-0.0054990826
194	0xbb8f72f2	-0.004377716
195	0xbb91c9ba	-0.0044490965
196	0xb8f407cf	-0.00011636281
197	0x3b2eb0ac	0.0026655598
198	0xbbb42b25	-0.0054983073
199	0xbbaeb527	-0.0053316536
200	0x3b43b69b	0.002986348
201	0x3b209a1d	0.0024505921
202	0xb9c38b72	-0.00037297193
203	0xba9465d8	-0.0011321856
204	0xbb50f25a	-0.0031882734
205	0xbba0d095	-0.0049076774
206	0xbbdf8847	-0.0068216654
207	0x3bb23832	0.005438828
208	0xbb08f8e1	-0.0020900297
209	0xbba99396	-0.0051750643
210	0x3a01d5e0	0.00049528293
211	0xba85db0e	-0.0010212378
212	0xb9acab92	-0.00032934226
213	0xbb4282d9	-0.0029680042
214	0xbb708038	-0.0036697518
215	0x3aed42eb	0.0018101608
216	0xbbbb4458	-0.0057149343
217	0x37d41dae	2.528619e-05
218	0x3b965abe	0.004588454
219	0xbb390e90	-0.002823744
220	0xbb0a5282	-0.0021106307
221	0xbb527e49	-0.003211873
222	0xbb957ef9	-0.0045622555
223	0x3bd6723e	0.0065443804
224	0xbb808b47	-0.003922853
225	0xbb425820	-0.0029654577
226	0x3ad7f2ec	0.0016475595
227	0xbbca2da9	-0.006169994
228	0xbbbeaedc	-0.0058191847
229	0xbb41078f	-0.0029453968
230	0x3b64330e	0.003482047
231	0xbb29416c	-0.0025826348
232	0xbc09b7fd	-0.008405683
233	0xbb9e7928	-0.0048362203
234	0xbb9fd70f	-0.004877932
235	0x3b390f70	0.0028237961
236	0xbbcdad48	-0.0062767603
237	0xba8f0da6	-0.0010914102
238	0xbbce58cc	-0.0062972065
239	0xba80e9c4	-0.0009835293
240	0x3bf9146e	0.0076013124
241	0x3b778c6e	0.0037772912
242	0x3b11cd0c	0.0022247462
243	0xbbb2b5f6	-0.0054538203
244	0xbbfb409c	-0.007667614
245	0xbb24d147	-0.0025149153
246	0xbbe34222	-0.006935374
247	0xbaca77e4	-0.0015447107
248	0xb9390c15	-0.00017647476
249	0x3ab2049a	0.0013581694
250	0x39612b8e	0.00021473898
251	0xbb472bc3	-0.0030391074
252	0x3a6d6ac9	0.0009056745
253	0xbb6c2ead	-0.0036038563
254	0xbbfb07f4	-0.00766086
255	0xbb1cc4c1	-0.0023920985
